notebooks/advanced_nn.pth (torch, 220592 bytes, 8 tensors)

fc.0.weight f4 [256, 50]
00000000: f2ee eebc 31a2 85bd e36a 003e 74f3 a03d
00000010: 9e52 a4bd 3bc2 13be e1d0 363e a465 b7bd
00000020: 9a68 9b3d 0460 a7bd d9d9 6ebe 7f2c b43d
00000030: 0b4d 073e e93f 1c3c ec06 85bd e291 e43d
00000040: c1f6 203d 9d42 4bbe 2ddc 6bbd 4aa1 35be
00000050: 5fb8 583d 9b4b 813d efc1 b0bd a7dc b23d
00000060: e043 22be 493e 413d 89be fabd a201 f1bc
00000070: d99f 073e fd3f d0bb a5bc 743e 4b9c cebd
00000080: 29da 993d 49f4 d83d 77b2 033e 4faf 313e
00000090: 1df7 14bd 7e3d 99bd de54 ddbc dd92 683d
000000a0: ad6b c53d efc8 023c 2548 843e eb41 afbd
000000b0: bb20 2ebe 0dd6 ce3c 9b4b efbd d394 56be
000000c0: d877 a7bd dd30 a93c 7981 e93d 3ad3 edbd
000000d0: c00f 85ba 0731 d3bd b7e7 28bd 3df9 ffbd
000000e0: 5b59 be3d e161 c4bd 639f 96bd 15e6 5abc
000000f0: 4e68 46be 2bef 543e 4a17 463e 372c b9bd
00000100: 4ce3 d8bc 19a6 693e 3d47 c53d d01b 8a3d
00000110: 4006 e23d c205 03bd e269 683c ac53 abbd
00000120: ff69 43be fcee 04be ad40 32bd 82d1 2c3d
00000130: 96fe 313d c884 c2bd e28a 2d3e abd8 c83c
00000140: 5497 bebd 1473 7d3e ba65 a1bd 34c8 1c3e
00000150: ffbe 0d3e 505c 73bd 6263 b93c 8ba8 223e
00000160: 8482 2fbe 6cc8 18bc 93d1 febd 7366 19be
00000170: 49b4 46bd df0d 16bc 6274 1ebd a1c1 263e
00000180: 7921 96bd 16e1 043b 49f9 17be fe55 7f3c
00000190: ef91 dc3d c572 883c a24c f33d e792 a93d
000001a0: 7648 bd3a cfbb 29be 7b39 463d 0055 5bbd
000001b0: 012e 33be 9405 0f3c 4d22 12be 5977 fdba
000001c0: 5644 453d 6427 6e3c c3d8 84bb 5de6 203e
000001d0: ba8b 3fbd 93cb cf3c ecab 30be e7f9 52bd
000001e0: d45f fabd b859 133e b850 2cbe 63a2 dc3d
000001f0: 218a a43c 70e6 c33a 9e46 8fbc be3c d43d
00000200: 52db 453e d971 c1bd 09e4 a0bd 7d56 00be
00000210: 08d0 ca3d b7c9 70bc 4bb7 ee3d 25e8 923d
00000220: a71d 623e 60ed 253e 3fab 823e 92af 82bd
00000230: c3f9 92bd cc3c bdbd af11 753d 2875 0bbe
00000240: ea9c 16bd e758 3c3e 2c41 683d 8e61 a0bd
00000250: a3d0 83bd 6a9b 333c 46e8 da3b fc09 2e38
00000260: 702b 533d 2f3a ad3d c042 e23d 8eb3 12be
00000270: 6f21 35bc 36ca 193c cc5a e03d 355a 8cbe
00000280: e294 3f3e f8a6 d1bd 8789 0fbe 8767 00be
00000290: f70b 453c 2a92 03bd 5c1f c23d 50b9 ecbd
000002a0: 2507 453e 07dd 0a3e 244e 80bd 1b1c 2e3e
000002b0: 8d3a 73bd e5ef 683d 8809 b93d 6f17 ef3c
000002c0: 42e1 0c3e e01e c5ba 3fd0 04bd 10a6 07be
000002d0: 0ecc 343b 497c 393e 2a1a 7cbd 7e9b 27bd
000002e0: 72c4 07bc 1860 11be 4302 cc3d 8e34 1cbd
000002f0: 9299 e73d f7c9 4c3e 4ef4 d43d 6599 55bd
00000300: a6d0 043e 7d8b 31be 82bf a83d 2d04 033e
00000310: f165 e0bd 942e d7bd eaae 11bd 8b11 2a3d
00000320: 330f 52bd e841 87bd 67cf 8a3d fcb7 01bd
00000330: 1074 c6bd d49f 9f3d ac20 d83d 77af 09be
00000340: f665 883d d500 cebd 38fe 213e 18e4 40bc
00000350: 9bea 393d 0187 083e f775 cabd a081 20be
00000360: 49a4 043e 8685 ca3d 077c 2dbe cac1 633d
00000370: 8306 e93c f9b0 2cbe 0c14 423d dc94 423e
00000380: 927a 4cbd 09cf 1abd a3eb 913d 936c 3abe
00000390: 134a a13d 3611 463e edbc e23d 3809 cf3d
000003a0: 33aa 103d 7991 663c cc68 fdbd 86b6 d2bd
000003b0: 7ee7 063d af22 a6be 5d46 963d aead 433e
000003c0: a6e0 87bd 710f 04bc 1dde f9bd 1f51 89bc
000003d0: 900b 833d 6100 2bbd a7b2 3cbe 7281 88bc
000003e0: 7985 8e3d 7302 ac3d 7345 0a3e 9606 e7bd
000003f0: 5dc1 75bd 7343 a6bd 9b77 c8bc 3045 18be
-0.029166672 -0.06525076 0.12540774 0.07858935 -0.080235705 -0.14429562 0.17853118 -0.08954933
0.075883105 -0.081726104 -0.2332529 0.087975495 0.13212983 0.009536722 -0.06495461 0.111606374
0.039297823 -0.1984963 -0.057583023 -0.17737308 0.052910205 0.06313249 -0.0863074 0.08733492
-0.15846205 0.04717854 -0.12243373 -0.029419724 0.13244571 -0.0063552842 0.23900087 -0.10088404
0.07512314 0.10593469 0.12861048 0.17352031 -0.036368478 -0.07482432 -0.027018007 0.056780685
0.09639678 0.007982477 0.25836292 -0.08557495 -0.17004673 0.025248552 -0.116843425 -0.2095521
-0.08177155 0.020653183 0.11401648 -0.11612554 -0.0010151789 -0.103120856 -0.041236605 -0.1249871
0.09294387 -0.095889814 -0.07354619 -0.01336052 -0.19375727 0.2079436 0.19344822 -0.090416364
-0.026475571 0.22817267 0.09632728 0.06743586 0.11036348 -0.031987913 0.014185401 -0.083655685
-0.19083403 -0.1298179 -0.04351871 0.04219199 0.043455683 -0.09497982 0.16947511 0.024517378
-0.09306207 0.2475093 -0.07880731 0.15310746 0.1384239 -0.059414208 0.022630397 0.15884607
-0.17139632 -0.009325128 -0.12442317 -0.14980488 -0.048511777 -0.009158581 -0.03868521 0.16284801
-0.07330603 0.0020275763 -0.14841188 0.015584467 0.10770022 0.016656289 0.11879851 0.082799725
0.0014441151 -0.1657555 0.04839466 -0.05354786 -0.17498018 0.008729357 -0.14270897 -0.0019337937
0.048160873 0.014535759 -0.0040541603 0.15712877 -0.046764113 0.025365626 -0.17253083 -0.051507857
-0.12225309 0.14389694 -0.16827667 0.1077316 0.020085396 0.0014945995 -0.017489728 0.10363148
0.19321945 -0.09445543 -0.07855994 -0.12532993 0.0990296 -0.01469653 0.11656054 0.07173184
0.22081624 0.16203833 0.25521275 -0.06381144 -0.071765445 -0.09240112 0.059831318 -0.1361891
-0.03677074 0.18393289 0.056702778 -0.07831107 -0.06436279 0.010962347 0.006680521 4.149413e-05
0.051555097 0.08458363 0.11047888 -0.14326307 -0.0110553345 0.00938659 0.10954818 -0.27412573
0.18709138 -0.10236925 -0.14017306 -0.12539493 0.012026778 -0.032121815 0.094786376 -0.11558783
0.19241007 0.13560878 -0.06264904 0.17002909 -0.05938201 0.056869406 0.09035021 0.029185979
0.13757804 -0.0015039109 -0.03242516 -0.13246942 0.0027587446 0.18113817 -0.06154839 -0.040919773
-0.008286582 -0.14196813 0.09961369 -0.038136058 0.11308588 0.19998918 0.1039816 -0.05214824
0.12970218 -0.17338367 0.08239652 0.12794562 -0.10956944 -0.10506931 -0.0355672 0.041520637
-0.051284026 -0.066043675 0.0677784 -0.0316696 -0.09690106 0.07794157 0.10553107 -0.13445841
0.066600725 -0.100587524 0.15819633 -0.011773132 0.045389753 0.1333275 -0.09885781 -0.15674448
0.12953295 0.09888749 -0.16941844 0.055604734 0.028445488 -0.16864385 0.0473824 0.19002098
-0.04992158 -0.0377951 0.07125022 -0.1820548 0.07875457 0.19342503 0.11071191 0.1010918
0.035318565 0.014072769 -0.12373504 -0.1028872 0.032935612 -0.32448336 0.073376395 0.19109222
-0.06634645 -0.008060322 -0.12200568 -0.016762314 0.0639869 -0.04174841 -0.18427525 -0.016663287
0.06959052 0.08398905 0.13503055 -0.11280553 -0.05999886 -0.08118334 -0.024471095 -0.14870143

fc.0.bias f4 [256]
00000000: 7f80 65be 7252 0abe 91a5 ebbd 45a9 1bbe
00000010: 2ebc 32bd abcf 55bd 3e1e e33d 4349 49be
00000020: be48 acbd ae1c afbb 1ce8 3fbd 75ac a1bd
00000030: 2690 c53b 19c7 d3bc 400d 0dbe f0e0 3cbe
00000040: 6038 e6bd b745 a2bd 24c9 e3bd c0fa 09be
00000050: 3b48 aebd 8f20 a93d 5ec8 8bbd 5187 44be
00000060: 8970 22be 9dbb 5bbe 0bfe 47be 81a8 30bd
00000070: 3e39 6ebe 9030 8cbb 8ec5 3bbd a287 a93c
00000080: 2516 aebc 1c3c 99bd b92b 383d 220e 39bd
00000090: 641a 04bd c52f d63a 593d 013e 43da 6ebd
000000a0: 337a 23be 71cc 433e 45cd 45be 9448 88bd
000000b0: e3e8 70be 6ad3 c3bc 5c1a 383e 781a 17be
000000c0: 189a 9ebc 1f5e 03bc 62d4 8ebc 413a 1cbc
000000d0: fdc1 ec3d 131e 093e b921 2c3d 8dd5 88be
000000e0: 3e17 3fbd d8cf a9bd 855b 3abe 2438 47bd
000000f0: 842d 233e d489 bfbc 1532 66be 007f 93bd
00000100: 1c7e 50bd e734 143e e763 9bbd 136e 77be
00000110: 749d cbbd bbdb bbbd ce6c 56be 48b8 7c3d
00000120: 8db5 9abd d40e c4bd 3f0c 5dbe f591 f63d
00000130: ed4f bbbd 7079 c63d c7ca 71be 5e28 a3bd
00000140: 9f9f d03d e348 f0bd f872 27be c08d e1bd
00000150: b7a5 4bbe 475f 82be b91b babe 34dd 2ebe
00000160: a3b2 dbbd 9c1a 7fbe a18a 26bc cbd6 f7bd
00000170: ac60 7bbe 2fb1 67bd 108e 24be a732 81bc
00000180: 4f5f e6bc 782a 13be a461 2b3d eb3a 21be
00000190: 9484 173c fe65 b43b a749 3bbd f42e cfbd
000001a0: ee55 08be 8f9f 003c 6dcc 11be 28fb a43c
000001b0: 1163 973c 396d c3bc efb6 b4bd c8d6 f2bd
000001c0: 7d79 1bbe 4269 1fbe 2f13 0e3e 1a9b f73c
000001d0: 84da 29bc 24ff eebd d2f2 27be 4621 0fbe
000001e0: f692 81be b6b2 3bbe bca0 0ebe b94c 4abb
000001f0: 8c80 40be bea5 59be 3a59 27bd 0295 0e3e
00000200: d1ed 303d 9042 70be 128a 423c b76b 0dbc
00000210: 3f59 8abc 6051 40bd 54a3 0bbe f26a 8bbe
00000220: 1270 11be 819b 8ebe 16d1 e7bd c019 18bd
00000230: 5d1f e7bd 82f6 0a3e 3b63 88be 20b0 abbd
00000240: 4f88 03be a675 c5bd 9503 1ebe c38a 67be
00000250: 1d48 8e3d bc38 04be 46ee b0bd f5ea 203e
00000260: 1d91 0ebe 5975 19be e663 d83d f403 513d
00000270: 51fc 953d 20bd 3cbd 82fb 4ebe 24b0 41bd
00000280: 4dfc c6bd 8430 2dbe 51cd eebd 8680 27be
00000290: 3a8f 6c3d a11e a6bd 7264 793c 8739 dabd
000002a0: 4d04 a93d 4d3c 1b3d 594d aebe 4f3f e03d
000002b0: 7eb7 9dbe be55 f6bd 3fc6 3abd ba62 e43d
000002c0: f8e4 42bd 80ea 6dbd cbb4 5bbd d106 0bbc
000002d0: 089d bdbd cf1e b53d 6fb0 13be 587e 96be
000002e0: 00f0 babd 7d16 10be acc0 ebbd 1f09 0cbe
000002f0: aa33 2abe b599 b8bd a0f8 8a3c 626b 84bc
00000300: ec80 efbc 8154 fabc 34fc 97bd 6471 abbc
00000310: dc86 12be 71bd 4ebe 49f5 8f3d 70c4 49be
00000320: 031f 34bd f7f9 1ebe a667 f4bd 1f19 10be
00000330: 85b1 08bd 94af 9ebe 9fed 2ebd 11c2 863c
00000340: aab9 11bc ba14 e8bd 61c9 93bc faec 0ebe
00000350: 7bd0 edbd 76c8 2a3b b647 1abe 5d2e ccbd
00000360: 1cb3 f0bd 5021 1ebe 0e2c a7bc 1b51 b1bd
00000370: e0be 28bd 0d32 2bbd f32f 0ebe abf8 943c
00000380: a0ef 8fbd a494 14be 0ac7 0abe 0bdb 0dbe
00000390: 1829 8d3d 791b cabd 609c 81be 30b8 4c3e
000003a0: d4df 87bd 1ccd 43be 88a3 56be 2a2e 1abe
000003b0: fa0e 9dbc 3ab2 31be e1c1 ea3d d3dd a6bc
000003c0: 372c 40be 427c 09be 5c4d e33b bb3b 4d3e
000003d0: 9690 93bd a9ce 4cbe 3494 e7bd 64aa 17bd
000003e0: 2b58 803d 4844 3cbe d966 73be f486 f83c
000003f0: 3f08 a8bd f2cc 5fbe a516 2fbe 4c0c c4be
-0.22412299 -0.13508013 -0.11506189 -0.1520129 -0.043636493 -0.0522 0.110897526 -0.19656853
-0.08412312 -0.005343995 -0.046852216 -0.07894222 0.0060291467 -0.025851773 -0.13774586 -0.18445182
-0.112412214 -0.07923453 -0.11122349 -0.1347456 -0.085098706 0.08258163 -0.068253264 -0.19192244
-0.15863241 -0.21458288 -0.19530503 -0.043129448 -0.23264024 -0.00427825 -0.0458427 0.020694558
-0.021250794 -0.07482168 0.044963572 -0.045179494 -0.03225173 0.0016341141 0.12621059 -0.05831362
-0.15964584 0.19120957 -0.19316585 -0.06654468 -0.23526339 -0.023904521 0.17978805 -0.14756191
-0.019360587 -0.008018046 -0.017435256 -0.009535373 0.11560438 0.13390379 0.042024348 -0.26725426
-0.046653025 -0.08291596 -0.18198974 -0.048637524 0.15935332 -0.023381151 -0.22480042 -0.07201958
-0.050901517 0.14473306 -0.07587414 -0.24163084 -0.09942141 -0.0917277 -0.20939943 0.06169918
-0.07554159 -0.09573141 -0.21586703 0.12039558 -0.09146104 0.09691131 -0.2361251 -0.07966684
0.10186695 -0.11732652 -0.16352451 -0.11013365 -0.19887434 -0.25463316 -0.36349276 -0.1707657
-0.107274316 -0.24912494 -0.010164888 -0.121015154 -0.24548596 -0.05656546 -0.16069818 -0.015771223
-0.028121619 -0.1437167 0.041841164 -0.15745132 0.009247918 0.0055053225 -0.045724537 -0.101163775
-0.1331403 0.007850542 -0.14238138 0.020139292 0.018479856 -0.023855792 -0.08823954 -0.118573725
-0.15183063 -0.15567496 0.13874505 0.030225325 -0.01036704 -0.11669758 -0.16401222 -0.13977537
-0.25307435 -0.18329892 -0.13928503 -0.0030868484 -0.18799037 -0.21254632 -0.040856577 0.1392403
0.04319555 -0.23462892 0.011873739 -0.008631638 -0.016888259 -0.046952605 -0.13636523 -0.2723003
-0.14202908 -0.27853015 -0.11319177 -0.037133932 -0.11285279 0.13570598 -0.26638207 -0.083832026
-0.12844966 -0.0964158 -0.15431054 -0.22611527 0.06947348 -0.12912267 -0.08639197 0.15714629
-0.13922544 -0.14986171 0.10565929 0.05102916 0.07323516 -0.0460788 -0.2021313 -0.04728712
-0.09716091 -0.16913038 -0.11660255 -0.16357622 0.05775378 -0.08111311 0.015221702 -0.10655504
0.082527734 0.037899304 -0.34043387 0.10949575 -0.30804056 -0.12028073 -0.04559922 0.11151643
-0.047581643 -0.058084965 -0.053639214 -0.008485512 -0.09258467 0.08843767 -0.14422773 -0.29393268
-0.091278076 -0.14071079 -0.115113586 -0.13675354 -0.16621271 -0.09013692 0.016964257 -0.016164485
-0.02923628 -0.030557873 -0.07421151 -0.020928092 -0.14309257 -0.20189454 0.07029206 -0.19703841
-0.043974888 -0.15525042 -0.11933832 -0.14072083 -0.03337242 -0.3099333 -0.042707082 0.01644996
-0.008894363 -0.11332078 -0.01804036 -0.13957587 -0.1161203 0.0026059425 -0.15066418 -0.099697806
-0.117529124 -0.15442395 -0.02040675 -0.08658048 -0.041197658 -0.04179578 -0.13885479 0.01818498
-0.07028127 -0.14509827 -0.1355249 -0.1385309 0.06892604 -0.09868521 -0.25314617 0.19992137
-0.06634489 -0.19121212 -0.2096082 -0.15056673 -0.01917218 -0.17353144 0.11462761 -0.020369446
-0.18766867 -0.13426307 0.006936712 0.20042317 -0.07205312 -0.2000071 -0.113075644 -0.03702773
0.06266817 -0.18385422 -0.23769702 0.030337788 -0.08204698 -0.21855524 -0.17098482 -0.38290632

fc.2.weight f4 [128, 256]
00000000: 63ac 723d e019 7e3d 6c9e 363d c191 423c
00000010: 9718 433c d540 013e 22ff ad3d eda8 113d
00000020: 9c76 ffbd 1f74 203d 4c60 aebd 636b 093d
00000030: 95f4 ae3d 15a9 48bd c514 24bd 390d 3cbd
00000040: 6606 9d3c 63f8 88bd 3405 3abe 3f9d 80bc
00000050: a211 8d3a 98a9 0dbd 7a82 433d 74cb 4bbc
00000060: a6f7 a0bd 5d89 743d 4972 933b 7e8d d83d
00000070: 5cf3 4d3c 9143 d6bc be57 273d ef51 7a3d
00000080: 93ad 2d3d a7a4 a7bd d603 1abc cef1 b13c
00000090: 3b44 983c 2452 30bc 9a6c 20be 28ea fc3d
000000a0: 6c4c 073d 0fc0 84bd e9eb 06bd c94d 553c
000000b0: 0e40 6abd 1ed9 01be 13ad f2bd 8e8c e2bd
000000c0: e247 6ebd 7226 e33c 57ae c13d 6b8a deba
000000d0: da9f 653d d168 9fba ed7e 9fbd f1d2 b8bb
000000e0: e1f2 e93d 2be6 a63d 2a89 cebd a0b3 26bd
000000f0: 6fc3 67bd 9640 8cbc f2c4 8e3d 20b0 6e3d
00000100: 95d9 8abc 3f66 96bd bd2d 60bb 4a62 cebc
00000110: 0613 743d 2b15 873d 27f0 9f3d 19e3 b6bd
00000120: 42fb 023c bc7e 72bd 5b09 bebc 7f57 78bd
00000130: 469c 373d b08a 953d faf1 e6bd 05a3 3ebd
00000140: 7123 52bd 4013 15be 622f 81bc 5457 b6bd
00000150: a641 e13d 959b e9bc d8ec 603d ed2a 9abc
00000160: 5b6e bc3d e34d f5bc de3d a73d d4fc 5abd
00000170: e664 023d 1b2f 973d 25d1 19bd f292 1a3d
00000180: 3ce9 093d bcd4 e6bd 5b01 973c 4ddf 0ebe
00000190: 137d f5bd 08b8 7b3d aa47 01bd 1d81 173c
000001a0: 466d 493c 216e 78bc 20d4 a53d bbd3 743d
000001b0: a9c8 9abd 20ea 93bd 4b78 50bc 1204 d5bd
000001c0: 1280 66bd 857a b03d 24dd 20bd 0f24 3dbd
000001d0: e7c0 893c 56dc 543d b535 52bd d7da 51bb
000001e0: a3ed 4ebd 4c88 89bd 0e98 8cbd ac41 9bbd
000001f0: 750d b63c 518f ce3d 9a75 f0bd 0eb7 8abd
00000200: 707a 1c3e 4451 83bc 7929 cd3d f947 debd
00000210: 8001 923d 0bef 0c3d c4a1 98bc 3601 0e3d
00000220: 2e80 1dbe 179e 15bd 1f62 cfbd f95c 86bd
00000230: 9729 fdbc 6a0b 13bd ac29 44bd fcc1 9e3c
00000240: c16e 82bd b6cd 263d 469b 1b3e f367 d9bc
00000250: 25da 963d ef17 09be 7aed 37bd abfb 4cbc
00000260: addc 59bd 8a58 4f3d 8d7e d3bd 4712 b63d
00000270: f03b b03d eb84 e83c 479f 1abe 562d 87bd
00000280: aa00 edbc 2d7b e43d c856 333c 9ba4 c83c
00000290: 6ae9 94bd 8f32 0ebd ae84 d4bc eb79 bcbc
000002a0: fa8c dabc 658d 6bbd ba63 a7bd e98a 65bd
000002b0: 8a52 96bc 01cc 873d ef4b 833c 8a48 a7bd
000002c0: 8542 33bd aa0b 3dbc 7604 0dbe cfc5 d53d
000002d0: 0880 36bd c476 19be 834c 2e3d e655 493c
000002e0: 434a 51bd b0ba fcbc 7971 2f3d f732 07bd
000002f0: 8cb9 e7bc 9712 0dbc 95ed 263d 3b67 9abc
00000300: 7487 0cbe cfd9 c0bd 55b1 8ebd 9432 adbd
00000310: b91d 4abd 94f7 4f3d 903e 14bc 1ac4 90bd
00000320: 8255 11bb 1187 6abc 41b8 5abd 73ce 47bc
00000330: ae4f 483d e9ea 90bd 4ca7 033c 9df1 56bd
00000340: 2aa5 dbbd 4943 023e 550c 4c3b 85bf 023d
00000350: 2f89 de3d 18a8 15be bc81 e33d 8b28 a9bd
00000360: 1d34 af3d a6c3 bd3c ca6f e43b 5b15 6abb
00000370: 816e a4bd 8c33 23bc 52b8 3cbd e3b1 dc3a
00000380: 3db9 833d bf83 ae3d 9204 6e3d f563 353d
00000390: fcb4 263c 96fb a13d 0dc7 2e3d 78a9 b1bd
000003a0: 4743 cabc 4c6f 01bd 6712 6ebc 52c2 093d
000003b0: 059b a73b fa9c e4bc 6a59 68bd 8899 2a3d
000003c0: 0d90 1dbe e165 0abe 00ec 163d ea7c 0abd
000003d0: f239 ea3c f90b 77bd d30a de3d ea5a 6dbd
000003e0: 62b9 8d3d bf6d 9d3d 04e5 e43c ab36 0cbd
000003f0: 0a76 a13d 83ae 1e3d 1449 88bd cb42 e63c
0.059246432 0.062036395 0.044584677 0.011875571 0.011907718 0.12622388 0.08495928 0.03556149
-0.12473795 0.03917324 -0.08514461 0.033549678 0.08542744 -0.048989374 -0.04005887 -0.045911048
0.01916809 -0.06688001 -0.18166047 -0.01569998 0.0010762701 -0.034585565 0.047731854 -0.012438644
-0.07859735 0.059701312 0.004499708 0.105738625 0.012570228 -0.026155265 0.04085516 0.061113294
0.04240186 -0.08185702 -0.009400329 0.021721747 0.018587222 -0.010761771 -0.15666428 0.12349349
0.033031866 -0.06481945 -0.032939825 0.013019034 -0.057189994 -0.1268048 -0.118494175 -0.11061965
-0.05817402 0.027728293 0.09457081 -0.0016978508 0.05606065 -0.0012161975 -0.07787881 -0.0056403806
0.114232786 0.0814937 -0.10084756 -0.040698647 -0.056582864 -0.01712064 0.06971158 0.058273435
-0.016949454 -0.07343721 -0.003420695 -0.025193352 0.059588455 0.06595834 0.07809477 -0.08930034
0.007994475 -0.059202895 -0.02319782 -0.060630318 0.04482677 0.07301843 -0.11276622 -0.046542186
-0.05130333 -0.14558125 -0.015769664 -0.08903375 0.109988496 -0.02851657 0.05491337 -0.018819297
0.09200736 -0.029944366 0.08166097 -0.053463772 0.031834505 0.073820315 -0.03755297 0.037737794
0.033669695 -0.112710446 0.018433264 -0.1395237 -0.11986747 0.061454803 -0.031562485 0.009247092
0.012294119 -0.0151629755 0.080971 0.059772234 -0.07557804 -0.0722239 -0.012723993 -0.10401167
-0.05627448 0.08617119 -0.039273396 -0.046176966 0.016815616 0.05196794 -0.05132075 -0.0032021308
-0.050519597 -0.0671545 -0.0686494 -0.07580885 0.022223214 0.10085929 -0.11741181 -0.06773196
0.15281081 -0.016029961 0.10017676 -0.108535714 0.07129192 0.034407657 -0.018631823 0.034669124
-0.15380928 -0.03652772 -0.10126137 -0.06560702 -0.03090362 -0.035899557 -0.047891304 0.019379608
-0.06368781 0.040723525 0.15195951 -0.026538825 0.073658265 -0.13388036 -0.04490421 -0.012511174
-0.05318897 0.050621547 -0.10326872 0.08890205 0.08605182 0.028383693 -0.15099822 -0.06600444
-0.02893098 0.111563064 0.010945983 0.024492553 -0.07271083 -0.034716185 -0.025942173 -0.023007354
-0.026678551 -0.05750789 -0.08173318 -0.05604068 -0.018349905 0.066307075 0.016027419 -0.081681326
-0.04376461 -0.011538425 -0.13771233 0.104381196 -0.044555694 -0.14986712 0.042553436 0.012288546
-0.051096212 -0.030850738 0.042832825 -0.03300759 -0.028286718 -0.008610389 0.04075392 -0.018848052
-0.13723546 -0.09416544 -0.06967417 -0.08456913 -0.049344752 0.05077322 -0.009048119 -0.070686534
-0.002217621 -0.014314429 -0.053398374 -0.012195217 0.048904113 -0.070760556 0.008035492 -0.052476514
-0.10724862 0.1272098 0.003113528 0.03192093 0.108660094 -0.14614904 0.11108729 -0.08259686
0.08554862 0.023164582 0.006971334 -0.0035718295 -0.080288894 -0.00996102 -0.04607422 0.0016837682
0.06431816 0.08521222 0.058109827 0.04428478 0.010174986 0.07909314 0.0426703 -0.08674902
-0.024690283 -0.03160028 -0.014530755 0.033632584 0.0051149153 -0.027906884 -0.056725897 0.041650325
-0.15386982 -0.13515426 0.03684616 -0.033810534 0.028592084 -0.060314152 0.10841908 -0.05794803
0.069201246 0.07686948 0.027941234 -0.034231823 0.07883842 0.038740646 -0.066545635 0.028108021

fc.2.bias f4 [128]
00000000: 1da3 81bb 2f3d 053e 2734 1dbd 78da 173c
00000010: cfd3 6d3c 04da 633d f752 d1bd dacd 97bd
00000020: 8e8e b8bd 4e05 683a bfa6 86bd 62a0 e2bc
00000030: ab54 853b b076 333d d30a 173d b468 76bd
00000040: aa7a 03bd fcc3 cabd 9918 81bd 0653 133e
00000050: 3b08 9fbd 3a0f c8bd 30fe b33d 7f2d a73d
00000060: 3d4d 3cb9 e3f4 383d d6a2 0c3e f98f 6b3d
00000070: 4873 ca3d 29a6 b8bd f03f a6bd d7dc 213d
00000080: 1b24 823b 3f76 5fbc fe8f 86bc a42f 263d
00000090: 0e89 c6bc 1a92 1ebd 3bcb a4bc d2cc 68bd
000000a0: fb52 073e 2cbd f4bd 892e 9b39 afd8 913b
000000b0: cc37 22bc 879f c6bb 455e e83d 54b9 8e3d
000000c0: b6b6 003e f724 d7bc 6b65 bfbd 1e24 a43c
000000d0: 86ae 76bd 988d 303d 79f0 633c 0ef0 8fbd
000000e0: 76fc 883d 0986 89bd a066 29bc 83ec 3e3d
000000f0: c192 083d 3ce9 0bbd 1545 1c3d 0e9d 88bd
00000100: f82f 85ba 711e fdbc 2646 1cbd 9178 0f3e
00000110: fd71 efbd 0fbf 2fbd e27e a5bb c151 0cbb
00000120: d3c6 783d 7d85 7e39 9a4f 733d b6fa 91bc
00000130: f296 953d bb08 743c 8a9c bbbd 57c1 973d
00000140: 4e80 c1bc 14c0 8e3a 805f 873d ce52 cc3d
00000150: 2a9a 223d fbb0 82bd e916 0d3d 91f2 123c
00000160: be3c b8bd adf4 6fbd f3eb d3bd 33a5 6b3d
00000170: 11f9 8dbd 7b4b 2bbd 1478 893c a6b9 583b
00000180: 880f 05bd 2450 7d3d 4d82 d93d f175 db3d
00000190: 4691 f93c 96c6 b43c 77dc 8dbc a653 3a3d
000001a0: 9687 0cbd 36f3 153c 6cf4 f73c 80dd bf3d
000001b0: 4952 eabd 2297 ebbc b6d7 6bbd f833 0d3d
000001c0: db94 83bd e1f5 17bd 9c3f 933c 52ab 2abc
000001d0: d308 76bc 90c7 6fbd 2fc6 86bb eca0 6fbd
000001e0: 3d2a ce3c ff6e 74bd 5331 b33d 5794 f6bc
000001f0: 5196 123d 8da2 063d 59ab 8fbc 185e 663c
-0.003956212 0.13011621 -0.038379814 0.009268396 0.014515831 0.055627838 -0.102209024 -0.0741231
-0.09011565 0.0008850888 -0.06574773 -0.027664367 0.004068931 0.04381436 0.036875557 -0.060158446
-0.032099403 -0.09900662 -0.0630352 0.1438714 -0.07765242 -0.09768529 0.08788717 0.081629746
-0.0001795785 0.045155417 0.13733992 0.05751035 0.098852694 -0.090160675 -0.08117664 0.03951725
0.0039715893 -0.013639032 -0.016426083 0.040572777 -0.024235275 -0.038713552 -0.02011644 -0.056835957
0.13215248 -0.11950144 0.00029598575 0.0044508795 -0.009900998 -0.0060614976 0.113461055 0.06968942
0.12569699 -0.026262743 -0.09345516 0.020036753 -0.060225032 0.043103784 0.013912314 -0.07028209
0.06688778 -0.06715018 -0.010339409 0.046612274 0.03334308 -0.034157977 0.03815182 -0.06670581
-0.001016139 -0.030898305 -0.038152836 0.14010836 -0.116916634 -0.042906817 -0.005050526 -0.0021411034
0.06073649 0.00024273056 0.059402086 -0.017819744 0.07304181 0.01489466 -0.09160717 0.074099235
-0.02362075 0.0010890984 0.06610012 0.09976731 0.039697804 -0.063814126 0.034445677 0.008968965
-0.08995961 -0.05858295 -0.10347738 0.057530593 -0.06932271 -0.04182003 0.01678089 0.003306964
-0.032485515 0.061844006 0.10620556 0.10715855 0.03046478 0.02206735 -0.01731704 0.04548993
-0.034308992 0.009152224 0.030267917 0.0936842 -0.11441476 -0.02875859 -0.057578765 0.03447339
-0.06424876 -0.037099723 0.017974667 -0.0104168225 -0.015016752 -0.058539927 -0.004112981 -0.058503076
0.025166625 -0.059676167 0.08749642 -0.03010003 0.035787884 0.032869864 -0.01753776 0.01406052

fc.4.weight f4 [64, 128]
00000000: 2eca fe3d bc39 acbd 1e34 f43a 4e9e 213d
00000010: 6975 ba3c 6c88 1ebd 83be 5abb 804d b5bd
00000020: 3f35 823d 6133 96bd 5d05 f03c a2d1 cf3d
00000030: 7e5b a63d 8ce3 103d fae7 c33a 0325 6abd
00000040: 1b62 bdbd d983 fd3d e96f 8c3c 2940 b53c
00000050: 80ec 453c 0ac5 46bd b784 78bd b505 6dbd
00000060: e3f5 463d 3c93 83bd 5bdc ffbc 9d9a fbbc
00000070: a4a8 b0bd 70a5 4fbd 2964 973d 3b6c a93c
00000080: 79fc 103d 2eda 56bc 9c88 c33d 0aa9 693c
00000090: 6e8c 89bd f7e5 d53c 8390 873d 4ff3 48bd
000000a0: 6822 bbbd 9f05 77bd fd24 a8bd 3764 093c
000000b0: 7035 35bd ebf7 20bd 84bf 343c feed 46bd
000000c0: 4ded 05be e598 743b b051 a3bd e024 483d
000000d0: d84b 1dbb 1bc3 663c 8255 8fbd b248 34bd
000000e0: ce14 c9bd 74ab 8e3b 7ae4 ecbd ce19 963d
000000f0: 86ee 253d fbe8 69bd b7d7 d73c 1401 5ebc
00000100: a38b f4bc a25f 5bbd 7f6e 1c3d f167 833d
00000110: d1b2 273c 28d7 963d 27ae aabd da53 ba3d
00000120: 260b 663c 3f6e 28bc bc98 eabc 01f5 f9bd
00000130: 4724 c8bd c1a4 4fbd 3f44 433a c403 9abd
00000140: add0 e9bd 7076 d33d fbe1 e8b9 2842 75bd
00000150: 61a1 bf3d 9b5b 2a3e bfbc 81bd 08d9 7dbd
00000160: f4b5 9d3b ef86 123a 19a8 3f3e 5d6e b1bc
00000170: 755c e43a 7d84 57be 5cbf c33d a7a9 1f3d
00000180: 977b 83bd 8d51 a1bc cfa9 f33c 3510 1ebc
00000190: 63ea 833d 48ce 223d e73a 70bd a90f c23d
000001a0: 3c76 bebd b634 d83b a13f aebc 5368 b7bd
000001b0: 438f e1bd 927b f7bc 6208 b0bc 1370 50bc
000001c0: 8a28 e7bc 2963 9ebd 54d2 f6bc de7a 923d
000001d0: fc0b c5bc 9bd3 dcbc bc88 4e3d 85e4 88bd
000001e0: 835f 14bc d751 26bd 6846 18be f3eb a13c
000001f0: 70b1 0bbe 6a0e 3f3d cbe0 63bd 1499 023d
00000200: 5915 84bd 53c3 7cbd b8b3 a4bd a812 3f3d
00000210: 477c 3d3e b5dd f13d b167 1dbd bbed 8e3a
00000220: 6fd3 1ebe 284d 77bc 35a5 0cbe d7d8 4eba
00000230: f7e1 f9bd 10dc 833c da3f da3d c056 c7bd
00000240: aa24 77bd aefc 21bd c9e0 903d 068d eabc
00000250: 8cc1 b43d fbdb 49bd 8b13 0b3d f507 093e
00000260: 35dd 8e3d 5bd9 953d 646e a4bd f9d7 203d
00000270: b925 593c a58a 0c3e c9b0 4abd d55e 0b3d
00000280: 0eb0 b5bd 5e5e 7bbd 27f6 c9bd af44 373d
00000290: 7da2 613d ae35 c33d 23aa d9bc 1c0c 23be
000002a0: bb23 693d b452 313d d94d b0bd b0b3 0bbd
000002b0: f8bc 0bbb 2f22 053d a737 ff3d d1f3 46bd
000002c0: 1bd9 6bbd 628b 60bd 92c3 7f3d 680c 8abd
000002d0: a62a 17be 13cf 11bd d633 88bd 9eb9 7dbc
000002e0: 4a8e a5bd 8e7a c0bb c4ad abbd 84b7 42bd
000002f0: 43d6 0ebd 6a4f e9bc 9131 4cbd 1d21 203d
00000300: 994b a2bb 82f4 1e3d ee07 ccbb 5d21 0e3e
00000310: 37cc efbd 1e0e c5bd 9b11 8a3d 9575 08bc
00000320: e631 bf3d db77 0c3d 5d6c bcbd 12f2 f3bd
00000330: 86a3 c63c ffac 063d aacf ccbd 505d bb3d
00000340: 2a71 81bd bac2 6fbb e82d fabc 606f bfbc
00000350: 2369 fcbc 1837 b33c 3f57 db3d 0860 fe3c
00000360: 0584 053e 94be 29bd 07eb ccbd 5186 343d
00000370: 6ed6 f7bd 4516 c63c e495 2bbd 720a f3bc
00000380: f653 4dbd 83e9 a23d a5d4 2e3c 3853 be3d
00000390: 6624 14bd 4530 dbbd 7d40 d83d 6743 d53c
000003a0: eab9 853d 938f 9bbd 30be 123e 6df2 003e
000003b0: 6c45 82bd 7d69 d0bc f51e 223d 4a34 cc3d
000003c0: 1410 1dbe bc95 f5bd 1718 063c cf57 bbbd
000003d0: 1b7a 963d 468c afbc 6a69 00bd 2a18 e43b
000003e0: d377 f1ba f49f 913c 2b28 b9bd d426 7e3c
000003f0: ec18 633d cf09 003e ec6a 1cbe 635d 99bd
0.124409065 -0.084094495 0.0018631255 0.03945761 0.022761064 -0.03870432 -0.0033377714 -0.088526726
0.06357812 -0.073340185 0.029299432 0.10147406 0.081229195 0.035373256 0.0014946454 -0.057164203
-0.09247228 0.123786636 0.017143207 0.02212532 0.012080312 -0.048527755 -0.06067344 -0.05786677
0.04857434 -0.06424567 -0.031233003 -0.030713374 -0.08625916 -0.050694883 0.07392151 0.020681491
0.035397027 -0.0131135415 0.095475405 0.014261493 -0.06716238 0.026110632 0.0661936 -0.049060162
-0.09137422 -0.060308095 -0.0821018 0.0083857095 -0.044240415 -0.039298933 0.011031989 -0.04856681
-0.13078804 0.0037322578 -0.07974565 0.04886329 -0.0024001505 0.014084603 -0.06998731 -0.04401464
-0.09818421 0.004353935 -0.11567016 0.073291406 0.040510677 -0.057106953 0.026347978 -0.013550062
-0.02985174 -0.053558 0.038191315 0.064163096 0.010235504 0.073652565 -0.08333998 0.09098025
0.014040744 -0.010280191 -0.028637283 -0.12204934 -0.09772544 -0.05069423 0.0007448829 -0.075202495
-0.11416755 0.103253245 -0.00044418857 -0.059877545 0.093569525 0.16636507 -0.063348286 -0.061974555
0.0048129503 0.00055895647 0.18716468 -0.02165907 0.0017422574 -0.21046634 0.09557983 0.038980152
-0.06420057 -0.019692207 0.029744057 -0.009647419 0.0644119 0.039747506 -0.058649924 0.09475643
-0.09299895 0.0065980805 -0.021270575 -0.08955445 -0.11013653 -0.03021029 -0.021488372 -0.012722033
-0.028217573 -0.07733757 -0.03012959 0.07152341 -0.024053566 -0.02695637 0.05042337 -0.06684212
-0.009055975 -0.040605392 -0.14870608 0.01976583 -0.13641906 0.046644606 -0.0556343 0.031884268
-0.06449384 -0.061709713 -0.08042091 0.04664865 0.1850444 0.118098654 -0.038428966 0.001090459
-0.15510343 -0.015094079 -0.13734896 -0.0007890588 -0.122013025 0.016096145 0.1065671 -0.09733343
-0.0603377 -0.039547615 0.07074124 -0.028631698 0.08825979 -0.049282055 0.033954185 0.13381942
0.06975786 0.07316848 -0.08028868 0.039268468 0.013253623 0.13724764 -0.049485 0.034025986
-0.088714704 -0.061369292 -0.09861403 0.044743236 0.0550866 0.09531723 -0.026570385 -0.15922588
0.05691884 0.043291762 -0.08608598 -0.03410691 -0.002132235 0.032503303 0.12461787 -0.048572365
-0.057580095 -0.054820426 0.06244237 -0.067406476 -0.14762363 -0.035597872 -0.06650512 -0.015486149
-0.0808378 -0.0058739847 -0.083827525 -0.047538295 -0.034872305 -0.02848025 -0.049851958 0.03909408
-0.0049528596 0.0388074 -0.006226531 0.13879915 -0.11708873 -0.09621833 0.06741639 -0.008328815
0.09335689 0.03429399 -0.09200356 -0.119114056 0.024247896 0.032879826 -0.10000546 0.09148657
-0.063204125 -0.0036584572 -0.030539468 -0.023368537 -0.030811852 0.021876857 0.1071 0.03105165
0.13038643 -0.041441515 -0.100057654 0.044073407 -0.12101446 0.02418054 -0.041890994 -0.029668067
-0.0501289 0.07954695 0.010670816 0.092932165 -0.036167525 -0.10702566 0.10559175 0.026033117
0.06529601 -0.07595744 0.14330363 0.12592478 -0.063608974 -0.025440926 0.039580304 0.09970911
-0.15338165 -0.1199145 0.008184454 -0.091476075 0.073475085 -0.021429192 -0.03135053 0.0069608884
-0.0018422551 0.017776467 -0.090408646 0.015512187 0.05544369 0.12503742 -0.15275162 -0.07488515

fc.4.bias f4 [64]
00000000: 1f7b cbbd 8718 623e 103a 3e3e f63e 843d
00000010: 0c5c 2f3d 9b1c a8bd a537 803d 609e 113e
00000020: 3d80 d0bc ffdd 403e f56c 68bd d62d fbbc
00000030: 3116 88bc 0253 9dbd 4bea 02be 8b16 063e
00000040: 4146 45bc d83f 593c 7eec 9a3d c51b a63d
00000050: 405d 8b3d 2e83 edbd 0c67 103e 6b78 683e
00000060: 6924 783e 3302 b2bd 98d9 f4bd c227 063d
00000070: 9cb5 9cbd a500 aabb dd3c e13d 77af edbd
00000080: 8f71 e63c a3d9 05be 98cb 5dbc 0eee 4d3e
00000090: 9b16 273d 3adc e13d 67cb 5dbb 2f17 f6bd
000000a0: 5374 af3d 4637 1bbd 0932 a7bd 864a 7dbc
000000b0: c593 ecbc 10cf cdbd 6168 00be f6b7 253e
000000c0: 1bcd e63d 3c2a ddba 5c4f 78bd c627 a93d
000000d0: aa19 ea39 dc83 d6bd cfb5 743e e150 3b3e
000000e0: 65f5 55bc 36ca b33d 9b65 213e d8b7 953d
000000f0: a44c bfbb f8b8 15bd f9f6 c2bd c94e 883c
-0.09935593 0.22079669 0.18576837 0.06457321 0.042812392 -0.08208581 0.06260613 0.14220572
-0.025451774 0.18834685 -0.056744535 -0.030661505 -0.016612144 -0.07681848 -0.12784688 0.13094537
-0.012040676 0.01325985 0.075646386 0.08110765 0.068048954 -0.11597286 0.1410181 0.22702186
0.2423264 -0.08691826 -0.11955565 0.03275276 -0.07651827 -0.005188065 0.10997937 -0.11605733
0.02813032 -0.13071303 -0.01353731 0.20110342 0.040793043 0.11028333 -0.003384316 -0.12016141
0.08567109 -0.03789451 -0.0816384 -0.015459662 -0.028879056 -0.1004926 -0.12539817 0.16183457
0.112695895 -0.0016873549 -0.060622558 0.08259539 0.0004465108 -0.10474369 0.2389748 0.18292572
-0.013058995 0.08778803 0.15761416 0.07310456 -0.0058379937 -0.036553353 -0.095197625 0.01663913

fc.6.weight f4 [2, 64]
00000000: d060 23bd 7c57 ee3d cc7e 183d 1131 9e3d
00000010: 3d7c c63d 03f7 1ebe 2f7a 0a3e 92c1 053e
00000020: 91b7 41bd bb50 7f3d f05e 08be b526 e83d
00000030: 9d59 babd 523a 25be 4a94 00bd 4690 eb3d
00000040: 84e0 17be 02c5 c33c 6ec9 223d 92c8 9b3d
00000050: 38bd c53d 4a5c 6fbd 93b4 1f3e 52ab ae3d
00000060: ace0 0f3e 4730 f43c 4678 26be 3300 1fbd
00000070: 7404 d3bd 87d2 5c3c c006 bebc 07d0 62bd
00000080: 9658 afbd 53c5 d5bc 012e 38be 4718 e63d
00000090: de47 ab3d 2304 7a3d 98bd 62be 0d75 17be
000000a0: aad6 e0ba 02f8 093e e6f2 4a3d 4e77 acbd
000000b0: 6ff0 3cbe 48ae f2bd feb0 39be 3452 ef3d
000000c0: 7ce4 923a 0044 dcbd 2840 c93c 93ee 233e
000000d0: fad6 c7bd 68d5 d9bd 4009 4d3e 033e ba3d
000000e0: 1744 f5bd 34ed c93d acbd 023e 8d1f fc3c
000000f0: c049 34bb 8760 30be a060 88bd 701b 8dbd
00000100: 3ea0 0e3c f8a3 f6bd 2eea 2fbe 8e84 4c3c
00000110: 5f0c 1d3c d015 7b3c a003 27be 5927 5ebd
00000120: b986 70bc 1c37 10bd 34a3 9e3d efe4 00be
00000130: 2f4f 6c3e de7a 063e 55b2 ae3d d290 cdbd
00000140: f47f 833d 81ad e3bd e81f 09be db01 0fbe
00000150: a530 823d ce96 fd3d 43dd 17be ecb3 2ebe
00000160: 54e0 babd b336 a93d f51a dc3d 666d 4b3d
00000170: 7f49 543d 8678 e63d 5fcc b0bd ee85 4b3d
00000180: 9bd9 f23b 0a71 4a39 4ca9 153e 3400 0dbe
00000190: 4640 15bd 66b1 873c a494 2d3e 38e3 183c
000001a0: d316 22be 75f8 90bd 2f44 b23d 96ab 043e
000001b0: bb32 073e fbc5 2bba 5d73 e13d 1818 54be
000001c0: d6a2 17be b3ef cd3d 67b3 d33d b80b 383d
000001d0: 9a37 6e3d a8c1 6e3d 29a7 99bd 1924 86bd
000001e0: 4d6d 4f3c ca53 26be c030 51bd 5399 a2bd
000001f0: de1b 23be 2c4c e63d 7c30 573e 533e 08be
-0.03988725 0.1163778 0.037230298 0.077242024 0.09691665 -0.15523915 0.13523172 0.13062122
-0.047294203 0.06233285 -0.13317466 0.11335508 -0.090991236 -0.16135529 -0.03139142 0.11502127
-0.1483174 0.023897652 0.03974288 0.07606615 0.09655231 -0.058437623 0.15596227 0.085287705
0.1405055 0.029808177 -0.16256818 -0.03881855 -0.10303584 0.013477928 -0.023196578 -0.05537417
-0.08561818 -0.026095068 -0.17986299 0.11235099 0.08363317 0.0610391 -0.22142637 -0.14790745
-0.0017153819 0.13473514 0.049548052 -0.08421193 -0.18451093 -0.11849648 -0.18133923 0.11685601
0.001120701 -0.107551575 0.024566725 0.16008978 -0.097578004 -0.10636407 0.2002306 0.09093859
-0.11975878 0.09859696 0.12767667 0.030776763 -0.0027509779 -0.17224322 -0.06659055 -0.06889999
0.008705197 -0.12042993 -0.17179176 0.012482775 0.009585469 0.015325025 -0.16309977 -0.054236744
-0.014680558 -0.035208806 0.07745972 -0.12587331 0.23077081 0.13132808 0.08530108 -0.10037388
0.064208895 -0.111170776 -0.13391078 -0.13965552 0.063569345 0.12382279 -0.14830498 -0.17060822
-0.091248184 0.08262386 0.10747329 0.049664877 0.051827904 0.11253457 -0.08632731 0.049688272
0.0074111945 0.00019306332 0.14615363 -0.13769609 -0.03643825 0.016564082 0.16951233 0.009331517
-0.15829019 -0.070786394 0.08704411 0.1295608 0.13202946 -0.0006552634 0.11008332 -0.20712316
-0.1480821 0.100554846 0.10336953 0.04493305 0.058158495 0.058290154 -0.075025864 -0.06549854
0.012660337 -0.162429 -0.051071882 -0.079394005 -0.15928599 0.112449974 0.21014589 -0.13305025

fc.6.bias f4 [2]
00000000: b531 783e 9335 debd
0.24237712 -0.10850062
