notebooks/simple_nn.pth (torch, 162456 bytes, 8 tensors)

fc.0.weight f4 [128, 50]
0.009519436 0.11205481 0.026234258 0.12910566 -0.023059303 -0.12459971 0.012374636 0.028321007
-0.055082116 -0.09421196 -0.11189491 -0.007961495 -0.044501003 -0.057149522 -0.016032178 0.055618815
-0.055471703 -0.11772377 -0.014026651 -0.012967269 0.11682324 0.03667934 -0.06366119 0.13363497
-0.06858531 -0.05736571 0.07952189 0.019272557 -0.10076644 0.0476447 -0.12816541 -0.10929233
0.087268665 -0.01688972 -0.06754963 0.037513573 0.07536721 0.0076731993 -0.1335078 0.07921765
-0.059049662 0.13605236 -0.06633165 -0.07797723 -0.13894029 -0.08007856 -0.111265175 -0.122757286
-0.11349746 0.056427617 -0.08265352 -0.10815583 0.10506248 0.057377324 0.10174659 -0.013404466
-0.056997117 -0.088060856 0.10670916 -0.13504052 0.12831901 0.068911225 0.07340481 -0.06185552
0.060442213 -0.040318526 0.12733844 -0.11629937 0.1193306 -0.05059243 0.10343525 0.009740792
-0.1398308 0.120554805 -0.06286679 0.12564781 -0.11486408 0.07368062 0.07004481 0.08525517
0.080659635 0.1096733 -0.0013605475 -0.053758267 0.06450564 -0.084080085 -0.10299909 -0.03850774
-0.00081998383 -0.11990647 0.060299605 0.091072656 0.11729382 -0.110909104 0.10377927 -0.05063614
-0.10658328 -0.048952796 -0.13232781 -0.0752512 0.12781058 0.046243507 0.07584024 0.09221901
0.075729296 -0.097422294 0.02789815 0.12624381 0.047515832 -0.11206628 0.033718538 0.055618174
-0.015337406 -0.072767064 0.0011074208 -0.08266549 0.09138781 0.0136554595 0.087531574 0.12419811
0.0766465 0.010402317 0.1329767 0.132397 0.1367473 0.044785805 -0.04741812 0.10628005
-0.1387321 0.017318537 -0.023898736 0.023831313 -0.06579816 0.10855856 0.08211831 -0.06587224
-0.010954149 0.07521183 -0.008538507 -0.005897028 -0.067341104 -0.13994104 0.03207288 0.060879484
0.13206196 0.10670601 0.1009196 -0.13883212 -0.11435043 -0.14010118 0.033793293 -0.008375448
-0.08043471 0.094877444 -0.09674453 0.025839722 0.065422215 -0.15267883 -0.042897556 0.08162029
-0.0030242591 0.054166757 0.0014781773 0.106154904 0.09485868 -0.08608956 -0.12602852 -0.06214208
-0.022299225 -0.071649455 0.07186102 -0.005438292 0.07762036 -0.11977193 -0.12533411 -0.023801332
0.03065699 -0.10170784 -0.0020397394 -0.07579185 -0.079526916 -0.11035594 0.10293183 0.08647699
0.047352176 -0.024824511 -0.016336026 0.008367685 0.037420977 -0.061983038 0.11255868 0.12078801
0.08100737 0.101781875 0.10078552 0.0038144456 -0.10809215 -0.052427743 -0.042577628 -0.138154
0.045813978 -0.07753704 0.034961224 -0.12747705 0.040445354 0.08059212 0.11032717 0.032629143
0.08602177 0.030527 -0.11241349 0.06616202 0.011307975 -0.107674435 0.08628848 -0.014122682
0.02546838 -0.0011397408 -0.06222843 0.032880954 0.10988888 0.12433775 -0.016040662 -0.041704457
0.12867689 -0.04583191 -0.027683169 -0.10521656 0.08084865 0.106846265 -0.13789967 0.10362396
-0.081046075 0.09382936 0.07149054 -0.08813132 0.023209143 0.033620562 0.057388898 -0.05698023
-0.023576334 0.09321463 -0.08683968 -0.13799065 0.10188176 0.04285871 -0.026652003 -0.05904996
0.10891243 -0.033616878 -0.0791473 0.048896287 0.028978135 0.07012524 -0.052320156 -0.07947941
00000000: 69f7 1b3c fe7c e53d 3ae9 d63c 4634 043e
00000010: dde6 bcbc 222e ffbd fcbe 4a3c 7501 e83c
00000020: c99d 61bd 33f2 c0bd 2929 e5bd ee70 02bc
00000030: af46 36bd 9e15 6abd ea55 83bc 8ed0 633d
00000040: 4c36 63bd 2919 f1bd 0ad0 65bc ab74 54bc
00000050: 0641 ef3d 133d 163d cc60 82bd 9bd7 083e
00000060: 7476 8cbd 4ff8 6abd 5fdc a23d 7be1 9d3c
00000070: a35e cebd 1727 433d cb3d 03be a8d4 dfbd
00000080: eab9 b23d 4f5c 8abc 7657 8abd d5a7 193d
00000090: 205a 9a3d 766f fb3b 45b6 08be dd3c a23d
000000a0: 0fde 71bd 4f51 0b3e e3d8 87bd 87b2 9fbd
000000b0: 5d46 0ebe 3a00 a4bd ffde e3bd 2c68 fbbd
000000c0: 5b71 e8bd a520 673d 4046 a9bd ce80 ddbd
000000d0: ff2a d73d 7c04 6b3d 8460 d03d 689e 5bbc
000000e0: cf75 69bd 4059 b4bd 558a da3d 1048 0abe
000000f0: 0f66 033e 5421 8d3d 4355 963d 375c 7dbd
00000100: 4192 773d 0a25 25bd 0265 023e 5d2e eebd
00000110: 9a63 f43d 023a 4fbd dcd5 d33d d897 1f3c
00000120: ce2f 0fbe 70e5 f63d 4ec0 80bd d2a9 003e
00000130: dc3d ebbd dde5 963d a773 8f3d 439a ae3d
00000140: e130 a53d 659c e03d 6654 b2ba a131 5cbd
00000150: 881b 843d 2e32 acbd 30f1 d2bd 4bba 1dbd
00000160: 2ff4 56ba 8691 f5bd b8fc 763d 4d84 ba3d
00000170: be37 f03d 5024 e3bd 3a8a d43d d767 4fbd
00000180: 5648 dabd ba82 48bd f180 07be 4d1d 9abd
00000190: c7e0 023e d569 3d3d 2152 9b3d 52dd bc3d
000001a0: f617 9b3d 5785 c7bd a98a e43c 0f46 013e
000001b0: f69f 423d 0183 e5bd 731c 0a3d e2cf 633d
000001c0: be49 7bbc e606 95bd e026 913a 864c a9bd
000001d0: 8829 bb3d 26bb 5f3c c143 b33d 945b fe3d
000001e0: d7f8 9c3d 7b6e 2a3c 0b2b 083e 1493 073e
000001f0: 7c07 0c3e 5271 373d 8139 42bd 5ba9 d93d
00000200: ca0f 0ebe 9bdf 8d3c 48c7 c3bc e339 c33c
00000210: 30c1 86bd f353 de3d a52d a83d 06e8 86bd
00000220: 0879 33bc a908 9a3d 18e5 0bbc db3b c1bb
00000230: 22ea 89bd b44c 0fbe da5e 033d c45c 793d
00000240: 403b 073e ae88 da3d efae ce3d 022a 0ebe
00000250: 8f30 eabd af76 0fbe d66a 0a3d 2d39 09bc
00000260: f4ba a4bd 1b4f c23d ff21 c6bd d3ad d33c
00000270: 15fc 853d d757 1cbe 59b5 2fbd 8a28 a73d
00000280: a632 46bb f6dd 5d3d 66bf c13a be67 d93d
00000290: 4545 c23d b94f b0bd 9f0d 01be b288 7ebd
000002a0: ddac b6bc f3bc 92bd df2b 933d b333 b2bb
000002b0: 6cf7 9e3d fc4a f5bd 9657 00be 03fb c2bc
000002c0: 5e24 fb3c 334c d0bd 26ad 05bb c238 9bbd
000002d0: 02df a2bd 4c02 e2bd eccd d23d d91a b13d
000002e0: 5bf4 413d c65c cbbc 21d3 85bc 9d18 093c
000002f0: bd46 193d ede1 7dbd 2a85 e63d b45f f73d
00000300: 31e7 a53d 0473 d03d a468 ce3d c7fb 793b
00000310: 6b5f ddbd 79be 56bd e165 2ebd 3e78 0dbe
00000320: 70a7 3b3d bdcb 9ebd 8033 0f3d 5889 02be
00000330: 07aa 253d 7b0d a53d 36f3 e13d 23a6 053d
00000340: 2f2c b03d c213 fa3c 0b39 e6bd f47f 873d
00000350: 1645 393c 6a84 dcbd 04b8 b03d d262 67bc
00000360: 10a3 d03c 5b63 95ba 3de3 7ebd 2eae 063d
00000370: 6c0d e13d caa4 fe3d b567 83bc 4bd2 2abd
00000380: e0c3 033e 3eba 3bbd d0c7 e2bc c87b d7bd
00000390: fa93 a53d 37d2 da3d 9235 0dbe cc38 d43d
000003a0: 7cfb a5bd 9c29 c03d a269 923d 327e b4bd
000003b0: 1a21 be3c b7b5 093d 9f10 6b3d 1a64 69bd
000003c0: 2823 c1bc 50e7 be3d 01d9 b1bd 6c4d 0dbe
000003d0: 62a7 d03d 9d8c 2f3d 4d55 dabc 5fde 71bd
000003e0: 7b0d df3d dab1 09bd fb17 a2bd 7947 483d
000003f0: 8e63 ed3c d29d 8f3d a94d 56bd 1ac6 a2bd

fc.0.bias f4 [128]
-0.078244284 -0.057393167 0.053348314 0.010583776 0.0044881487 -0.14158258 0.061064918 0.032403104
0.12458435 -0.07179611 -0.12604243 -0.121030636 -0.09897047 -0.13377605 -0.07214605 -0.1323563
-0.0753909 -0.08214379 -0.05073909 0.115997516 -0.048299678 -0.03186904 -0.005440396 -0.096424766
-0.005293159 -0.12951803 0.078444324 0.1269466 0.028087936 0.02209199 -0.0113283135 0.013013838
-0.011741585 0.11207682 0.10643145 0.047880467 0.0020765378 -0.114890024 -0.03937043 -0.12820426
0.11631946 0.041738577 0.04493363 -0.02240935 0.05171725 -0.02815183 0.038155686 -0.026758121
0.10099358 0.0019692339 0.0067195524 -0.06166158 -0.09847617 -0.10149113 0.047336828 0.08844675
0.058751035 -0.097456485 0.02505546 -0.11105807 -0.13842137 0.07121632 0.10014687 -0.07220612
0.08912744 -0.017823659 0.13956243 0.14005904 0.13559134 -0.014910915 0.023906374 0.05992746
0.008785898 0.05008632 0.011711405 0.03778134 -0.095757425 0.01826815 0.13815442 0.00867806
0.03168367 -0.09006632 -0.031970948 -0.00860909 -0.129974 -0.023522448 -0.035268348 0.0634832
0.0610637 0.050001837 0.013081936 -0.085819565 -0.13993451 0.14074832 -0.12627353 0.020159462
0.11586962 0.064807594 0.029177142 0.09715387 -0.11766724 0.13537118 -0.051823467 -0.061169002
0.109907374 0.003271931 0.030074853 -0.1203044 -0.0318191 0.06705127 0.109215155 0.13662365
-0.024374686 -0.035193622 0.09694394 -0.03617856 -0.122253194 0.005241652 0.020612065 0.038070746
0.10147288 0.0051971623 0.014502463 -0.12631984 -0.07115314 0.02536388 -0.072861604 -0.095335566
00000000: 8a3e a0bd 1915 6bbd c383 5a3d 9367 2d3c
00000010: 5211 933b 06fb 10be 351f 7a3d 1eb9 043d
00000020: 1426 ff3d d709 93bd 4411 01be e9de f7bd
00000030: 08b1 cabd 97fc 08be 4fc1 93bd 6988 07be
00000040: 8b66 9abd 013b a8bd cbd3 4fbd 1b90 ed3d
00000050: e2d5 45bd 1c89 02bd 5945 b2bb 597a c5bd
00000060: 3c72 adbb 60a0 04be 6ba7 a03d 4afe 013e
00000070: ac18 e63c 43fa b43c 649a 39bc fe37 553c
00000080: c75f 40bc 8888 e53d bbf8 d93d 4f1e 443d
00000090: 8616 083b 764b ebbd e342 21bd fa47 03be
000000a0: e638 ee3d 12f6 2a3d 530c 383d d093 b7bc
000000b0: 78d5 533d ab9e e6bc 2349 1c3d d933 dbbc
000000c0: b9d5 ce3d 430e 013b b12f dc3b da90 7cbd
000000d0: e0ad c9bd 95da cfbd 43e4 413d 9223 b53d
000000e0: eda4 703d 4497 c7bd 1c41 cd3c 6a72 e3bd
000000f0: 55be 0dbe ddd9 913d cd19 cd3d cde0 93bd
00000100: 7288 b63d ec02 92bc 74e9 0e3e a36b 0f3e
00000110: 75d8 0a3e e94c 74bc 4dd7 c33c 7f76 753d
00000120: baf2 0f3c 5027 4d3d 31e1 3f3c 9bc0 1a3d
00000130: 781c c4bd 16a7 953c 5a78 0d3e 6c2e 0e3c
00000140: bcc6 013d b174 b8bd f8f3 02bd 240d 0dbc
00000150: e717 05be 26b2 c0bc 8b75 10bd 7b03 823d
00000160: ee1d 7a3d bace 4c3d 9e55 563c 2bc2 afbd
00000170: fe4a 0fbe 5420 103e d94d 01be 7525 a53c
00000180: 0d4d ed3d d8b9 843d e704 ef3c 9cf8 c63d
00000190: 86fb f0bd be9e 0a3e d844 54bd 598c 7abd
000001a0: 1e17 e13d e56d 563b 8a5f f63c 2762 f6bd
000001b0: bf54 02bd 2d52 893d 32ac df3d 12e7 0b3e
000001c0: 6cad c7bc 3027 10bd 8b8a c63d f82f 14bd
000001d0: e25f fabd 2ac2 ab3b a2da a83c 12f0 1b3d
000001e0: 03d1 cf3d f54c aa3b bd9b 6d3c fd59 01be
000001f0: bdb8 91bd e9c7 cf3c 7738 95bd 4b3f c3bd

fc.2.weight f4 [128, 128]
0.06138686 0.0046767704 -0.054862328 -0.072298214 0.07382274 0.0064345095 -0.022616299 0.015196705
0.01242608 -0.067477554 0.08010165 0.034663428 -0.029990993 -0.035274602 0.051677216 0.010058832
-0.07050302 -0.014832127 -0.051839393 0.012848178 0.03394853 -0.07303705 0.027595393 -0.005022273
-0.013192654 0.037701864 0.07719764 0.046624802 -0.049955525 0.040499605 -0.08011407 -0.08403326
0.035336282 -0.027816482 -9.727631e-06 -0.08270458 -0.014376799 0.04301779 0.08540861 -0.037526008
-0.047846604 0.058984485 0.041718762 -0.07157561 -0.08305079 -0.013390824 0.07659417 0.05661271
-0.059635796 -0.06540969 0.07276648 -0.0354329 0.023534741 0.011404936 -0.009332435 -0.015038478
0.016086433 0.018354662 -0.03474211 -0.008731854 -0.082318805 -0.06128807 0.007378821 0.022515424
0.021356773 0.022239061 -0.022650031 -0.051352847 0.07709415 0.004852573 0.041287623 0.074296676
-0.055906992 0.05021222 0.021767413 0.07895849 0.07765681 -0.08557966 -0.03926419 0.01870842
0.043079466 0.018306777 -0.0054610395 0.0012671906 0.037273157 0.048794813 -0.018117454 0.013913793
-0.069580615 0.04748312 0.023175325 0.06602808 -0.057920948 0.034187887 0.026758231 0.01617605
0.06690931 -0.077599525 -0.018886566 0.031515438 -0.044302344 -0.066029325 -0.07724919 0.083730936
0.047763474 0.008260501 0.009572849 0.075912975 0.041182972 0.06327793 0.04536737 -0.030348515
0.055292968 -0.01967786 -0.0021284297 0.07238535 0.09574012 -0.046272326 -0.03657091 -0.03579888
0.027195388 0.011580078 -0.021978324 -0.042345747 0.044897854 -0.050456155 -0.020979062 -0.000124025
0.057271518 0.01331238 -0.014246204 -0.046918724 0.08460191 -0.08301913 0.06747405 -0.0832782
0.072049916 0.0012118492 -0.0128912665 -0.008541613 0.076934315 0.07295078 0.008573463 -0.07442721
-0.057966642 0.01218933 0.05118881 0.020566244 0.06927286 -0.045632116 0.015334811 0.054272942
0.0635579 -0.0571392 0.022917 0.015056471 -0.06562471 0.0063712387 0.074650355 -0.033484697
-0.033238493 0.052318778 -0.024224637 0.036115456 0.08076047 -0.007524488 0.006330456 0.05689363
-0.07106262 -0.08632789 -0.06282109 0.05694507 -0.08262625 -0.064596936 -0.0092189545 0.010499397
-0.008360731 -0.08516089 -0.026392918 -0.021406056 0.071350776 -0.029906902 0.010168961 0.02760566
-0.07920738 0.061843194 -0.023691883 0.044308912 0.045779735 -0.010732899 0.042216837 0.043704122
-0.08808912 -0.07869982 -0.04945789 -0.069700554 0.018433303 0.047346264 -0.08867313 -0.0781824
-0.074491866 -0.060900956 -0.011474062 0.0040995893 0.08387044 -0.047575902 -0.056383487 -0.05250257
-0.024051746 0.015591794 -0.029048366 0.04286987 -0.037115328 0.05031806 0.027484817 -0.0021562444
-0.020526098 0.04487271 0.08608202 -0.029525038 0.0076055094 0.012402819 0.015765484 -0.009526421
-0.083656356 0.07152501 0.042083956 0.07298754 0.01812495 0.00059083395 -0.02405682 0.031495295
0.030664606 0.03256515 0.077662505 0.063454315 -0.03533048 -0.07462319 -0.025158837 -0.056362484
0.06012708 -0.08576848 -0.07281107 -0.0058702943 -0.043134425 0.0069269068 0.04438596 0.04021957
-0.06322301 0.07539045 0.010117198 0.014928373 -0.009680427 -0.018843628 -0.033609446 -0.07394539
00000000: ca70 7b3d 983f 993b 52b7 60bd 1611 94bd
00000010: 6030 973d 94d8 d23b d145 b9bc 9afb 783c
00000020: c296 4b3c ac31 8abd 550c a43d 3dfb 0d3d
00000030: acaf f5bc 1a7c 10bd 7dab 533d cdcd 243c
00000040: e363 90bd 7302 73bc 8b55 54bd 2a81 523c
00000050: 9d0d 0b3d 7394 95bd bc0f e23c e191 a4bb
00000060: 0026 58bc 456d 1a3d cc19 9e3d a6f9 3e3d
00000070: 2a9e 4cbd eae2 253d d812 a4bd a119 acbd
00000080: c7bc 103d 64df e3bc db33 23b7 0561 a9bd
00000090: aa8c 6bbc 6c33 303d b6ea ae3d dfb4 19bd
000000a0: cdfa 43bd b799 713d 4be1 2a3d 3c96 92bd
000000b0: 8816 aabd 3065 5bbc 67dd 9c3d bbe2 673d
000000c0: aa44 74bd 84f5 85bd 9806 953d 1722 11bd
000000d0: eecb c03c c5db 3a3c 12e7 18bc f363 76bc
000000e0: b2c7 833c 845c 963c be4d 0ebd 0d10 0fbc
000000f0: c396 a8bd 3309 7bbd 09ca f13b 4472 b83c
00000100: 66f4 ae3c b12e b63c 8f8c b9bc 5d57 52bd
00000110: 8ae3 9d3d 5502 9f3b 361d 293d db28 983d
00000120: bbfe 64bd 54ab 4d3d 9351 b23c fdb4 a13d
00000130: 890a 9f3d 6444 afbd 7dd3 20bd 6742 993c
00000140: 1874 303d 18f8 953c 85f2 b2bb dc17 a63a
00000150: bdab 183d 12dd 473d 0e6b 94bc adf6 633c
00000160: 4880 8ebd a97d 423d 2eda bd3c bb39 873d
00000170: 843e 6dbd 9908 0c3d 1434 db3c a383 843c
00000180: c007 893d 80ec 9ebd 00b8 9abc 5516 013d
00000190: 6076 35bd 623a 87bd d334 9ebd 207b ab3d
000001a0: a2a3 433d 0d57 073c 70d7 1c3c 4378 9b3d
000001b0: 7aaf 283d dc97 813d 23d3 393d 739d f8bc
000001c0: e17a 623d 7733 a1bc 207d 0bbb c53e 943d
000001d0: 6513 c43d 0d88 3dbd 61cb 15bd d9a1 12bd
000001e0: ddc8 de3c 5eba 3d3c e30b b4bc bc72 2dbd
000001f0: d0e6 373d 1dab 4ebd 48dc abbc b50c 02b9
00000200: 8a95 6a3d 2b1c 5a3c e968 69bc d92d 40bd
00000210: c443 ad3d ef05 aabd d62f 8a3d c38d aabd
00000220: e88e 933d e9d6 9e3a e435 53bc 1ff2 0bbc
00000230: bd8f 9d3d 3867 953d b677 0c3c 4b6d 98bd
00000240: 6e6e 6dbd c1b5 473c 5cab 513d 8a7a a83c
00000250: eede 8d3d bee8 3abd dc3e 7b3c 4e4d 5e3d
00000260: a52a 823d cb0a 6abd 6fbc bb3c 6baf 763c
00000270: 3f66 86bd d3c5 d03b 49e2 983d 4027 09bd
00000280: 1625 08bd 374c 563d bf72 c6bc cded 133d
00000290: bf65 a53d fb8f f6bb b76f cf3b 4c09 693d
000002a0: 4789 91bd adcc b0bd 58a8 80bd 3c3f 693d
000002b0: f437 a9bd 664b 84bd 190b 17bc aa05 2c3c
000002c0: 73fb 08bc d568 aebd f635 d8bc c15b afbc
000002d0: 5b20 923d 52ff f4bc b79b 263c 4425 e23c
000002e0: 7b37 a2bd 4a4f 7d3d 7b15 c2bc 437d 353d
000002f0: 8883 3b3d 0bd9 2fbc 90eb 2c3d 1803 333d
00000300: 1268 b4bd 5f2d a1bd 5b94 4abd 2abf 8ebd
00000310: 7001 973c 28ee 413d 429a b5bd 181e a0bd
00000320: 318f 98bd 4873 79bd b4fd 3bbc d955 863b
00000330: 44c4 ab3d f3de 42bd 5ff2 66bd ef0c 57bd
00000340: 2b08 c5bc b974 7f3c d7f6 edbc 5198 2f3d
00000350: 3e06 18bd 4f1a 4e3d d727 e13c c74f 0dbb
00000360: 5926 a8bc 72cc 373d c54b b03d 7ede f1bc
00000370: a337 f93b 3135 4b3c 9e26 813c b514 1cbc
00000380: 0654 abbd b47b 923d 3a60 2c3d 7e7a 953d
00000390: c67a 943c 32e2 1a3a cf12 c5bc 3601 013d
000003a0: 5734 fb3c 0963 053d 850d 9f3d 56f4 813d
000003b0: b2b6 10bd 0bd4 98bd e819 cebc 59dc 66bd
000003c0: d047 763d 63a7 afbd f81d 95bd 995b c0bb
000003d0: b9ad 30bd 1bfb e23b 0dce 353d 47bd 243d
000003e0: 117b 81bd 4f66 9a3d 9bc2 253c 2296 743c
000003f0: a79a 1ebc f45d 9abc 0faa 09bd ae70 97bd

fc.2.bias f4 [128]
-0.029706785 0.0120784445 -0.07803045 0.016723875 -0.07925009 0.023606414 -0.027822217 0.014828119
-0.017380027 0.08794522 0.08401547 -0.000768475 -0.017993527 -0.086187825 0.06295843 0.03827863
-0.074258626 0.037843533 -0.008592699 0.07494068 -0.010914857 -0.038669672 -0.0068558143 -0.0014894091
-0.013399011 0.08457513 -0.06355536 0.06260519 -0.08492188 0.021495625 0.0041710115 -0.077375956
-0.029151144 0.020454459 -0.060074117 0.08412471 -0.051794544 0.064733244 -0.08264381 0.052868858
-0.02507549 -0.08145932 0.06943848 -0.08172919 0.044608388 0.044345133 -0.043904655 0.00019046619
-0.084967285 -0.059627946 0.05711316 -0.059776407 0.032120094 0.028702613 -0.009713408 0.07969183
-0.0357532 0.013329045 -0.08132922 -0.0076583633 -0.00084727723 0.023768209 -0.02649719 -0.01588591
-0.07485882 0.0064478465 0.04644274 0.072953045 -0.00946271 0.012721042 0.06333611 -0.07248813
0.046418466 -0.07852113 0.0046217204 -0.030411277 -0.013478462 -0.033804707 0.07131114 -0.043812502
-0.037297286 -0.0068528587 -0.00640811 -0.035896745 0.014681097 0.0018040005 0.08122744 0.021944942
-0.08430047 -0.080875434 0.027730986 -0.07082945 -0.024371142 -0.04011486 -0.05947297 0.017356731
0.08206283 -0.08462135 -0.017783273 -0.026064126 -0.009664783 0.062694706 -0.041879356 -0.00067724846
-0.03722031 -0.040921167 0.013869255 0.060142137 0.049336586 0.07469152 0.0515868 -0.07472624
-0.010952587 -0.043875735 0.028151838 0.01622891 -0.009254139 0.07657643 0.061231915 -0.018287018
0.08217174 0.0852157 0.05717919 -0.034052894 0.05723115 -0.023175681 -0.068404995 -0.028724197
00000000: a55b f3bc abe4 453c 6ece 9fbd 8200 893c
00000010: df4d a2bd 3d62 c13c 6beb e3bc a4f1 723c
00000020: 8f60 8ebc a01c b43d 4e10 ac3d 7c73 49ba
00000030: 2967 93bc 3e83 b0bd 59f0 803d 0dca 1c3d
00000040: e814 98bd d201 1b3d 64c8 0cbc 807a 993d
00000050: 3ad4 32bc 1764 1ebd bda6 e0bb 4738 c3ba
00000060: 8787 5bbc ba35 ad3d 5029 82bd 2637 803d
00000070: 86eb adbd 9817 b03c fbac 883b 4977 9ebd
00000080: 61ce eebc 1c90 a73c 4710 76bd 9349 ac3d
00000090: 8426 54bd dd92 843d 2841 a9bd 048d 583d
000000a0: 1d6b cdbc 25d4 a6bd c335 8e3d a261 a7bd
000000b0: 49b7 363d 3ea3 353d 5ed5 33bd e1b7 4739
000000c0: 5403 aebd 6f3c 74bd 7def 693d 1bd8 74bd
000000d0: 5c90 033d be21 eb3c fc24 1fbc 7835 a33d
000000e0: f371 12bd 1162 5a3c ef8f a6bd 02f3 fabb
000000f0: d01b 5eba 8cb5 c23c a310 d9bc 2b23 82bc
00000100: 954f 99bd 7548 d33b be3a 3e3d 6868 953d
00000110: 7b09 1bbc eb6b 503c 5db6 813d a874 94bd
00000120: 4a21 3e3d b0cf a0bd cd71 973b 1221 f9bc
00000130: c4d4 5cbc ce76 0abd 930b 923d bd74 33bd
00000140: 0ac5 18bd f28d e0bb 1ffb d1bb 7708 13bd
00000150: fc88 703c 3674 ec3a 925a a63d e1c5 b33c
00000160: baa5 acbd 05a2 a5bd 182c e33c 080f 91bd
00000170: fda5 c7bc 7b4f 24bd ee99 73bd b42f 8e3c
00000180: 8f10 a83d f54d adbd 3aae 91bc 6f84 d5bc
00000190: 0a59 1ebc 1566 803d b089 2bbd 6089 31ba
000001a0: 5374 18bd f49c 27bd df3b 633c 9a57 763d
000001b0: 2915 4a3d def7 983d ae4c 533d 120a 99bd
000001c0: 7b72 33bc 0bb7 33bd af9e e63c 7ef2 843c
000001d0: ac9e 17bc 1ad4 9c3d 51ce 7a3d a8ce 95bc
000001e0: a849 a83d 9285 ae3d ba34 6a3d 0c7b 0bbd
000001f0: 366b 6a3d edda bdbc eb17 8cbd 024f ebbc

fc.4.weight f4 [128, 128]
-0.025526602 0.0617568 0.026536312 -0.036237165 -0.045239918 -0.07374619 -0.0022328733 0.02844735
0.011973181 -0.04203296 -0.059878286 -0.070029825 -0.031414192 0.030550204 -0.0045714537 0.07302353
0.010625006 0.027008059 0.063682094 -0.07268953 0.028443487 -0.043038137 -0.05070445 -0.044889454
0.0064970176 0.05126669 -0.005511106 -0.0040303282 -0.019499496 0.073344566 0.06313207 0.06267338
-0.0036296877 0.048995916 -0.023294603 -0.08178744 -0.08788841 0.06299995 0.07388327 0.0247463
-0.08008902 -0.002227907 -0.03874213 -0.024540251 -0.04069561 -0.08635365 -0.044897318 -0.028959988
-0.08621559 -0.043482862 0.02519391 -0.081425175 -0.07255969 -0.01763399 -0.044404097 -0.08458887
0.03509732 -0.0795437 -0.04057173 0.028150054 -0.034176856 -0.056975756 0.08411487 -0.07535974
0.08705997 -0.08090486 -0.083295874 0.02654592 -0.06410956 -0.03310922 0.0010724636 0.07033488
0.05396446 0.018522011 0.08544769 -0.025272565 -0.06514647 -0.020582031 0.08008874 -0.04211508
-0.08048069 0.062205378 0.07181334 0.021230046 0.046809833 0.01043944 -0.008009299 -0.03533063
0.0814236 0.054453097 -0.023515541 0.07317685 -0.0048500933 0.015578924 0.0029465402 -0.026840935
6.669585e-05 -0.024520524 0.055994682 0.03484162 -0.08437139 0.068192996 0.009806487 -0.08413047
-0.040438283 0.014564141 -0.062032383 -0.029422676 -0.046420965 -0.0034673742 -0.042896204 -0.08057985
-0.04466632 -0.014539495 0.0020582161 0.03874714 0.011148053 0.03063617 -0.042338394 0.063506044
0.0160521 0.016686117 0.054187074 0.010850982 -0.043527838 -0.04662114 -0.0039737304 0.02943736
-0.0798808 0.06871308 0.08196616 -0.07736039 0.043209106 -0.06512263 0.015490554 0.057288785
-0.03760005 0.005915622 -0.0431241 0.041471783 -0.08518758 -0.05822565 0.014051402 0.04884753
-0.009184534 0.081064865 0.067835964 0.019967107 0.0073481253 -0.0066350726 -0.076278485 -0.030872818
-0.026152937 -0.0421226 -0.070420496 -0.048207074 -0.030100958 -0.07487785 -0.030105647 -0.06803494
0.032936137 0.026025923 -0.019386515 0.006699028 -0.00521376 0.013502649 0.026862524 -0.07722631
0.03954628 0.047458462 -0.045718156 -0.056849543 0.07774315 0.018652124 -0.05276358 0.068102226
0.038335536 0.051095407 -0.031304453 -0.04181752 0.014730786 -0.07603038 -0.052592892 -0.037633397
-0.009188771 0.0041487524 0.06938525 0.08374266 -0.019567054 0.010164664 0.022620684 -0.014476594
0.00083108805 0.03708457 0.036171183 0.02458029 -0.023055192 0.034240495 -0.05697124 0.07855632
-0.08272077 -0.076970346 -0.07448551 0.010465055 -0.030762488 -0.041027438 -0.027778246 0.047256704
0.083876215 0.075639755 -0.032273922 0.03471795 0.08378978 0.011373211 0.010041222 0.01444203
-0.024565803 -0.037883393 -0.014686964 0.054667987 -0.024230188 0.047371723 -0.0653189 0.007931205
0.061251413 -0.018188471 -0.06409472 -0.061866578 0.087259725 -0.04390283 -0.009028228 0.061026145
0.02083696 -0.0008633926 0.033213314 0.024558077 -0.013261955 -0.07531913 0.0020201195 0.043113876
0.06402651 0.023363652 0.0055064354 0.058093946 -0.034168944 -0.08316774 -0.06430642 -0.071053244
0.026394648 0.023919363 -0.06746591 -0.0035500305 0.002080022 0.0067299264 -0.07024534 0.04693741
00000000: 2a1d d1bc b3f4 7c3d ae62 d93c 6c6d 14bd
00000010: 7e4d 39bd 3e08 97bd 6655 12bb 6b0a e93c
00000020: 292b 443c c12a 2cbd ef42 75bd cc6b 8fbd
00000030: 2bac 00bd 6c44 fa3c 22cc 95bb 5c8d 953d
00000040: 8114 2e3c 0140 dd3c c26b 823d 40de 94bd
00000050: 5102 e93c c248 30bd 78af 4fbd 01de 37bd
00000060: efe4 d43b 05fd 513d 8296 b4bb d810 84bb
00000070: 68bd 9fbc ad35 963d 634b 813d e75a 803d
00000080: 0ee0 6dbb f1af 483d 53d4 bebc 2c80 a7bd
00000090: d7fe b3bd 1e06 813d 1d50 973d c1b8 ca3c
000000a0: b605 a4bd 1402 12bb 11b0 1ebd a308 c9bc
000000b0: 71b0 26bd 2fda b0bd 40e6 37bd 7f3d edbc
000000c0: cd91 b0bd 161b 32bd 7563 ce3c 3ec2 a6bd
000000d0: 2d9a 94bd 2875 90bc 12e1 35bd ee3c adbd
000000e0: 35c2 0f3d cfe7 a2bd 8b2e 26bd f19a e63c
000000f0: 08fd 0bbd 695f 69bd 6b44 ac3d 3556 9abd
00000100: 7f4c b23d 72b1 a5bd 0797 aabd d476 d93c
00000110: df4b 83bd 899d 07bd e891 8c3a bc0b 903d
00000120: d609 5d3d 79bb 973c 33ff ae3d 6908 cfbc
00000130: 836b 85bd a69b a8bc 9105 a43d dd80 2cbd
00000140: 0fd3 a4bd 11cb 7e3d df12 933d a2ea ad3c
00000150: abbb 3f3d 2f0a 2b3c 6f39 03bc dab6 10bd
00000160: 6bc1 a63d 360a 5f3d aaa3 c0bc bfdd 953d
00000170: 88ed 9ebb be3e 7f3c be1a 413b 85e1 dbbc
00000180: 10df 8b38 44df c8bc ae5a 653d 16b6 0e3d
00000190: e8ca acbd c5a8 8b3d 63ab 203c 994c acbd
000001a0: 9da2 25bd 6f9e 6e3c ab15 7ebd d307 f1bc
000001b0: e923 3ebd e33c 63bb eeb3 2fbd 0c07 a5bd
000001c0: 08f4 36bd 1037 6ebc 23e3 063b 52b5 1e3d
000001d0: 53a6 363c b5f8 fa3c 066b 2dbd 750f 823d
000001e0: b27f 833c 53b1 883c 44f3 5d3d 51c8 313c
000001f0: 3f4a 32bd cff5 3ebd 1136 82bb 9e26 f13c
00000200: 8b98 a3bd 71b9 8c3d e0dd a73d 206f 9ebd
00000210: 08fc 303d 035f 85bd 18cc 7d3c a5a7 6a3d
00000220: 8302 1abd d6d7 c13b e5a2 30bd 51de 293d
00000230: d376 aebd 057e 6ebd da37 663c 5914 483d
00000240: ba7a 16bc 5605 a63d 95ed 8a3d 0f92 a33c
00000250: 8bc8 f03b 066b d9bb e537 9cbd fee8 fcbc
00000260: af3e d6bc bf88 2cbd 9f38 90bd c874 45bd
00000270: 4996 f6bc 8f59 99bd 1ea0 f6bc e755 8bbd
00000280: 0be8 063d 5134 d53c 78d0 9ebc 8583 db3b
00000290: 30d8 aabb 373a 5d3c cc0e dc3c d428 9ebd
000002a0: 48fb 213d ce63 423d f642 3bbd 11db 68bd
000002b0: cd37 9f3d 57cc 983c a01e 58bd 2e79 8b3d
000002c0: b905 1d3d 6b49 513d 1939 00bd d948 2bbd
000002d0: 6559 713c d1b5 9bbd a56b 57bd 7a25 1abd
000002e0: 808c 16bc 42f2 873b db19 8e3d 4681 ab3d
000002f0: 164b a0bc b189 263c 034f b93c 3c2f 6dbc
00000300: 60dd 593a fde5 173d 3c28 143d 9b5c c93c
00000310: 3ede bcbc c33f 0c3d ad5a 69bd 23e2 a03d
00000320: 8269 a9bd a1a2 9dbd dc8b 98bd 9f75 2b3c
00000330: 9d01 fcbc 630c 28bd 348f e3bc 3f90 413d
00000340: 4bc7 ab3d 04e9 9a3d a931 04bd 6934 0e3d
00000350: fa99 ab3d b456 3a3c f083 243c 449e 6c3c
00000360: 393e c9bc 9e2b 1bbd 98a1 70bc 8aeb 5f3d
00000370: 637e c6bc da08 423d eac5 85bd e3f1 013c
00000380: c3e2 7a3d fdff 94bc 1844 83bd cf67 7dbd
00000390: 3ab5 b23d 74d3 33bd 22eb 13bc 8df6 793d
000003a0: 46b2 aa3c 4c55 62ba af0a 083d 052e c93c
000003b0: ac48 59bc eb40 9abd fb63 043b 2d98 303d
000003c0: 5520 833d 2165 bf3c 546f b43b ebf3 6d3d
000003d0: bcf4 0bbd d953 aabd 16b3 83bd 5d84 91bd
000003e0: 9739 d83c 8af2 c33c 912b 8abd a1a7 68bb
000003f0: fa50 083b b786 dc3b cadc 8fbd 7141 403d

fc.4.bias f4 [128]
0.065549955 -0.03903416 -0.032834217 -0.036297787 0.07352055 0.046133548 0.0040124743 0.013409259
0.051179253 0.025185633 -0.006613711 0.047288693 0.013750104 0.059597284 -0.060087726 -0.0038318445
0.0139915645 -0.022048868 -0.009779808 0.038614135 -0.006897867 0.032221545 0.052399144 -0.03313079
0.07485051 0.00066172174 -0.0132665895 -0.00089345797 0.08524164 0.047264274 -0.025859881 -0.029280951
0.07662933 0.06805092 0.036009956 0.07872479 -0.0022239431 -0.05216132 0.02610555 -0.0038304832
-0.061993442 0.08452811 0.017661033 -0.011893264 -0.0026335595 -0.05288257 0.04653716 0.012041643
0.0022681165 0.007611982 0.043816358 -0.0096210865 0.05362603 0.08218323 -0.064042956 0.048414115
-0.03505623 0.06838273 -0.06696014 0.0002756351 0.08583378 -0.06893486 0.051612142 -0.06374937
0.011257064 -0.037676 0.0024693238 0.035102714 0.0066181794 -0.06077368 -0.08070312 0.06286544
-0.080376804 0.034817465 -0.07089365 0.048280224 -0.06489168 0.023015454 0.07638622 -0.063749395
-0.01485328 0.030855725 0.03945827 0.05970721 -0.06623184 -0.016091168 0.08185288 0.08912129
0.027380591 0.033114728 0.014836739 0.07680502 0.048128083 -0.030771377 -0.033515323 0.007483645
-0.019076075 -0.036434762 0.08315013 -0.044272725 0.05681155 0.07171992 -0.0026641707 0.04649932
0.0017475398 0.06559296 -0.016661843 -0.040432453 -0.047561027 -0.08808967 0.042541288 -0.08545943
-0.061075702 -0.029893713 -0.011360101 -0.047207832 -0.05577711 0.01904942 0.07231502 -0.008788966
-0.047300853 0.0751112 -0.08804345 0.023495447 0.040329948 -0.054036677 0.02757132 0.04616449
00000000: 0e3f 863d 49e2 1fbd 2c7d 06bd fdac 14bd
00000010: f191 963d 88f6 3c3d 137b 833b 82b2 5b3c
00000020: 56a1 513d 1a52 ce3c d4b7 d8bb cab1 413d
00000030: 1e48 613c 481c 743d 8c1e 76bd af1f 7bbb
00000040: e03c 653c d49f b4bc 7d3b 20bc db29 1e3d
00000050: 8107 e2bb bdfa 033d 7ca0 563d 27b4 07bd
00000060: 394b 993d 6577 2d3a 1c5c 59bc f336 6aba
00000070: 2b93 ae3d 2f98 413d 1ad8 d3bc 9bde efbc
00000080: d7ef 9c3d 485e 8b3d 2d7f 133d 763a a13d
00000090: 93bf 11bb 1ca7 55bd 4edb d53c d808 7bbb
000000a0: d6ec 7dbd 131d ad3d dfad 903c f7db 42bc
000000b0: cc97 2cbb 659b 58bd c09d 3e3d 504a 453c
000000c0: aea4 143b ef6d f93b c878 333d c3a1 1dbc
000000d0: f8a6 5b3d ae4f a83d f428 83bd e14d 463d
000000e0: 1f97 0fbd 3f0c 8c3d 6622 89bd 1e83 9039
000000f0: 9fc9 af3d b82d 8dbd 4167 533d 088f 82bd
00000100: 8c6f 383c 2652 1abd 61d4 213b ddc7 0f3d
00000110: 50dd d83b d3ed 78bd ad47 a5bd 99bf 803d
00000120: 989c a4bd c29c 0e3d b130 91bd 7cc1 453d
00000130: eee5 84bd e88a bc3c 6170 9c3d 0b8f 82bd
00000140: 2c5b 73bc 25c5 fc3c ff9e 213d 8c8f 743d
00000150: 8fa4 87bd a0d1 83bc 7ca2 a73d 3985 b63d
00000160: 434d e03c 4fa3 073d cb15 733c f34b 9d3d
00000170: f421 453d 4114 fcbc 5d47 09bd 5d39 f53b
00000180: 6e45 9cbc 9e3c 15bd 9e4a aa3d 5157 35bd
00000190: 3ab3 683d e5e1 923d 5e99 2ebb 1276 3e3d
000001a0: b50d e53a 9a55 863d 6b7e 88bc 809c 25bd
000001b0: 5acf 42bd 5b68 b4bd c63f 2e3d 5b05 afbd
000001c0: 842a 7abd a9e3 f4bc b81f 3abc 005d 41bd
000001d0: 8a76 64bd 870d 9c3c e619 943d 98ff 0fbc
000001e0: 8abe 41bd e7d3 993d 2050 b4bd 8679 c03c
000001f0: 0431 253d 9055 5dbd 40dd e13c fa16 3d3d

fc.6.weight f4 [2, 128]
0.01127886 0.05328962 0.05996553 0.053943958 0.008010856 -0.04332843 -0.1076117 0.02167433
0.04800071 0.08432132 -0.057911385 0.0015018476 0.018183952 0.019529331 -0.002411149 -0.068385854
-0.025971558 0.04531225 -0.051665444 -0.0011309546 -0.032245297 0.017324464 0.06432519 -0.07378579
-0.010020594 -0.07210793 0.013982413 0.025841162 0.12116647 0.05840475 0.07615707 0.014543937
-0.08206502 -0.064159445 0.06947689 -0.04957014 -0.019380031 -0.034587238 -0.043798592 -0.0022899627
0.09619859 0.053223133 0.050082214 -0.03079568 -0.002091468 -0.044831462 -0.0664128 -0.060591225
-0.027112933 0.028596895 -0.08078564 -0.08863685 -0.03477032 -0.05113847 -0.12282247 0.07892523
0.016706385 -0.002428097 -0.07006285 0.012300552 0.004747436 -0.081551544 -0.035178706 -0.086858295
-0.03884007 0.004910313 0.04647851 -0.06331928 0.070263915 0.08130326 0.08100696 -0.082355805
0.013227641 -0.00062161026 0.03352545 -0.06301708 0.011540051 -0.011465433 0.015169226 -0.073032886
-0.018195866 0.017192755 -0.032265984 -0.01076098 -0.05794052 0.050886404 -0.014252032 0.128906
0.055737015 -0.005696299 -0.06789779 0.03437244 0.04773542 0.050058573 -0.022269398 -0.012137398
-0.032033555 -0.025788382 -0.022521015 0.08070493 0.03695952 0.03572338 -0.011132211 -0.027354471
-0.07196018 -0.03136228 0.07225365 0.07425097 -0.042239446 -0.03318191 0.06259831 -0.0037601697
0.056200095 -0.053713113 -0.0827917 -0.08951355 -0.058368955 0.09516933 0.059293315 0.02582615
0.05733303 -0.09644818 -0.075138256 0.00838842 -0.020350542 0.060440414 0.0045227204 0.053724032
0.06259025 0.040414535 0.042312376 0.024334796 -0.006869221 0.067438215 0.077958874 -0.047575433
0.060274854 -0.101980634 0.100160435 -0.0051326356 -0.03083904 -0.066809855 0.10560428 0.0026718786
0.058440235 -0.0635624 -0.06639245 0.049378924 -0.065684795 -0.07122385 0.047247645 0.084455445
0.0055154506 0.057651915 -0.07336238 -0.06672497 -0.08234753 -0.037003003 0.084103666 -0.0357228
-0.046621926 0.11036741 -0.09365247 0.033937916 0.03094095 -0.03252111 -0.02399563 -0.07621826
0.055712756 0.008193087 -0.03677465 -0.08383362 0.10487395 -0.05572665 -0.056360774 -0.02053368
-0.065054834 -0.025620874 0.060743295 -0.06275421 0.0799123 -0.027516708 0.03213758 0.03575878
0.036429044 0.007827132 0.10304886 0.048288718 0.023991015 0.035438538 0.017161187 -0.06142755
0.108603925 -0.07194931 0.06537372 -0.07941224 -0.025719868 0.010683438 0.023433372 -0.06878952
-0.09186506 0.035769034 0.07431461 0.029016275 0.07995493 -0.0046076453 -0.08556768 -0.08835697
-0.031262837 -0.0059122313 0.04928189 -0.0030344191 0.049044278 -0.005395997 0.06713174 -0.12678348
-0.063415006 -0.024414528 -0.002466823 0.031751443 0.0073172073 0.016166098 0.067466974 -0.018901905
0.06299371 -0.032542836 -0.025044825 -0.055093948 -0.06538874 -0.067834124 -0.0038012562 0.09406907
-0.004111117 0.06949642 -0.06206188 -0.052653946 -0.0077259815 0.025593268 0.06329902 -0.05195392
-0.029640937 0.133348 -0.076062806 -0.019034699 -0.021672502 -0.06310485 0.06856459 -0.018719843
-0.06067149 -0.068682656 0.01154364 -0.063095845 0.013145557 -0.066854104 -0.078885935 -0.039315153
00000000: f8ca 383c 3746 5a3d 6a9e 753d 57f4 5c3d
00000010: f73f 033c 2779 31bd 8663 dcbd 5d8e b13c
00000020: 649c 443d a8b0 ac3d 7d34 6dbd a5d9 c43a
00000030: 83f6 943c fafb 9f3c 5e04 1ebb e20d 8cbd
00000040: 4ec2 d4bc 5699 393d 259f 53bd 8a3c 94ba
00000050: a513 04bd 09ec 8d3c edbc 833d 011d 97bd
00000060: 6b2d 24bc 53ad 93bd 7e16 653c d8b0 d33c
00000070: 2026 f83d d239 6f3d 3df8 9b3d b149 6e3c
00000080: b511 a8bd 0766 83bd e649 8e3d 0f0a 4bbd
00000090: dfc2 9ebc 59ab 0dbd 2766 33bd 3313 16bb
000000a0: c403 c53d 8000 5a3d 0223 4d3d 3947 fcbc
000000b0: 0311 09bb 32a1 37bd 6f03 88bd 812e 78bd
000000c0: f11b debc 0944 ea3c f172 a5bd 3d87 b5bd
000000d0: 536b 0ebd 9376 51bd 598a fbbd 8da3 a13d
000000e0: d4db 883c b520 1fbb 1d7d 8fbd 4188 493c
000000f0: 6190 9b3b 7f04 a7bd 8c17 10bd c3e2 b1bd
00000100: c416 1fbd b1e6 a03b 4060 3e3d 8aad 81bd
00000110: 87e6 8f3d 5382 a63d fae6 a53d 29aa a8bd
00000120: bfb8 583c 8ff3 22ba fb51 093d 190f 81bd
00000130: 7b12 3d3c 83d9 3bbc 5888 783c 4492 95bd
00000140: 7f0f 95bc d2d7 8c3c 5629 04bd d24e 30bc
00000150: 0a53 6dbd 436e 503d 5b81 69bc efff 033e
00000160: 7f4c 643d 05a8 babb ff0d 8bbd 1eca 0c3d
00000170: 3786 433d 380a 4d3d 506e b6bc f0db 46bc
00000180: 9e35 03bd 2842 d3bc fe7d b8bc a048 a53d
00000190: de62 173d ae52 123d e163 36bc 7c16 e0bc
000001a0: dc5f 93bd bc75 00bd b9f9 933d e410 983d
000001b0: 4503 2dbd c1e9 07bd 8b33 803d 2e6d 76bb
000001c0: 1232 663d 4802 5cbd b28e a9bd e152 b7bd
000001d0: 4914 6fbd 23e8 c23d 8cdd 723d 5d91 d33c
000001e0: 0ad6 6a3d a086 c5bd 16e2 99bd 956f 093c
000001f0: 2eb6 a6bc 5e90 773d 5433 943b bb0d 5c3d
00000200: 512f 803d b689 253d be4f 2d3d c459 c73c
00000210: 3417 e1bb 0c1d 8a3d e7a8 9f3d 75de 42bd
00000220: c4e2 763d 39db d0bd ea20 cd3d ab2f a8bb
00000230: 28a2 fcbc 9bd3 88bd 0f47 d83d af1a 2f3b
00000240: 075f 6f3d 012d 82bd c4f8 87bd 8e41 4a3d
00000250: c085 86bd cfdd 91bd bf86 413d faf6 ac3d
00000260: f4ba b43b 6a24 6c3d 043f 96bd 1aa7 88bd
00000270: d2a5 a8bd 7690 17bd 8b3e ac3d 1252 12bd
00000280: a2f6 3ebd 4f08 e23d decc bfbd 7c02 0b3d
00000290: e077 fd3c db34 05bd 7c92 c4bc 5218 9cbd
000002a0: 0f33 643d 4c3c 063c 04a1 16bd f6b0 abbd
000002b0: 27c8 d63d a141 64bd 8eda 66bd 4036 a8bc
000002c0: 783b 85bd dee2 d1bc f6cd 783d 4785 80bd
000002d0: 0fa9 a33d b86a e1bc b2a2 033d cc77 123d
000002e0: 9f36 153d 5f3d 003c 480b d33d 64ca 453d
000002f0: ce88 c43c 0028 113d 9e95 8c3c 749b 7bbd
00000300: bc6b de3d 295a 93bd a8e2 853d e2a2 a2bd
00000310: 79b2 d2bc 9609 2f3c 58f7 bf3c 85e1 8cbd
00000320: c023 bcbd 8d82 123d 4232 983d 8ab3 ed3c
00000330: 69bf a33d bbfb 96bb 1c3e afbd 80f4 b4bd
00000340: 760d 00bd 64bb c1bb cfdb 493d 1bdd 46bb
00000350: a7e2 483d e7d0 b0bb 5e7c 893d 87d3 01be
00000360: badf 81bd fa00 c8bc 6caa 21bb cd0d 023d
00000370: 2fc5 ef3b c46e 843c 202c 8a3d 2bd8 9abc
00000380: d902 813d a34b 05bd ce2a cdbc 31aa 61bd
00000390: 88ea 85bd 9eec 8abd 7f1e 79bb 49a7 c03d
000003a0: 8db6 86bb 2454 8e3d 9934 7ebd aaab 57bd
000003b0: 3b2a fdbb f9a8 d13c eba2 813d a2cd 54bd
000003c0: 8dd1 f2bc 618c 083e d1c6 9bbd a8ee 9bbc
000003d0: 888a b1bc 1e3d 81bd 976b 8c3d 5b5a 99bc
000003e0: ab82 78bd 7ea9 8cbd 8921 3d3c 6538 81bd
000003f0: 7660 573c ceea 88bd f38e a1bd ed08 21bd

fc.6.bias f4 [2]
-0.050729167 0.04687749
00000000: 63c9 4fbd 9c02 403d
