models/simple_nn.pth (torch, 478478 bytes, 14 tensors)

fc.0.weight f4 [128, 784]
00000000: bfd1 25bd b994 f9ba b8b8 13bd 3e2f 12bc
00000010: 27ca b1bb eb97 68bb eb79 f8bb 488c cabc
00000020: 5661 0abd 7383 813a 99b3 27bd a9d1 8e38
00000030: 59f3 04bd 8468 f53c 2846 9b3c 1c98 3dbd
00000040: 33e3 1cbd 1e78 7bbc 21d7 34bd 4f80 33bd
00000050: e333 0fbd 051a 92bc bf4c 5bbc 2055 073c
00000060: c54d 193b 79bc 59bc e65a b73b f34c 7b3c
00000070: a02d 1fbd a554 193c 5a5f 0eba c709 14bc
00000080: 0195 ecbc a727 77bc 3608 8ebc a7fe 0bbd
00000090: b20e e63c b9fd 823c 7293 233c f686 933c
000000a0: 6636 fb39 b7f7 283b fbb9 be3c f7b8 603c
000000b0: e5fa 2e3c 8865 3bbc 2522 f53b e8d2 a93c
000000c0: c266 f93b b20f d93c f81f 4b3c ecca 033d
000000d0: a824 7a3c faea a5bc 0bd9 a33c 359e 3b3c
000000e0: c512 32bd fa9c 9cbc 4aef 1c3c 6121 d93c
000000f0: 0908 24bc 5445 2bbc ee60 99bc ad6b abbc
00000100: 5d64 8dbc 8867 a9ba 5e22 febc c468 f4bc
00000110: b920 98bc 1ed0 0abd 96e6 3f3b 648b 6bbc
00000120: fa41 5cbc b6d7 37bc 2794 f7bc 0a2c 44bc
00000130: 7643 b83b c3e9 003d 92ee 1dbc 526f 1b3a
00000140: d7a9 2fb8 d32d 09bd 6322 12bc 0ea2 633c
00000150: 029d 82bc c6a3 98bb db71 d0bc c2b0 ab3c
00000160: 6253 243a 66d4 513c 6287 d6bc 0654 5cbc
00000170: 8c57 5c3c 0324 953b 4cc0 0bbd 20d0 b83c
00000180: 6d11 e03a b350 f63c 76f2 93bc 0a15 51ba
00000190: 9daf 8dbc 050b e03c 4aee 8f3c b84a 69bc
000001a0: fb20 febc ef90 fe3c dea2 5d3c 9352 ff3c
000001b0: f5a4 35bc a097 7c3c 5a86 d0bb 738c e73c
000001c0: 1717 c1bc 9536 a83c 642a ec3c 233e 853b
000001d0: 4f4a e0bb 8c20 f8bc c0fd 343a ce08 e93c
000001e0: 0b09 dabc 971d ba3c 2dba f83c 610d 0bbd
000001f0: 2b5f 69bb f717 9bbc 892d d13b c36e bd3c
00000200: e71a 31bc 63e4 dc3c eae0 083d 9cbd d2bc
00000210: 593a 8cbc 3f82 923c 84aa 04bd 9542 21bd
00000220: 40d8 03bd 9316 a9bb 4527 14bd 59e6 94bc
00000230: 0406 88bb 142d 593a 39b5 4d3c 4dd6 0eba
00000240: 9c06 813c f67a 15bc fca9 bb3c b23a bd3a
00000250: 066d b0b9 4528 a33c ce6a 44bc c749 6c3c
00000260: 012b b13b a0f4 f23c 3bcc ee3b 59fd 83bc
00000270: 47ac 20bd fa29 4b3c 46a3 cd3c 0751 74bc
00000280: a23f f4bb a3cf 9a3b b74b b4bc 73a4 e7bc
00000290: 2ccc 5ebc 97a0 1bbd 5b4b dcbb 8cdc efbc
000002a0: 7f28 56bc 55e4 22bc af4d ccbc 3d2c 04bd
000002b0: b715 d53c 2037 46bb f2ee 393d f2cc 8fbc
000002c0: 6a84 3e3b 3264 4c3c ab10 9b3b 5213 12bd
000002d0: f372 b73c c4f8 093d 95c4 773b c801 76bc
000002e0: b446 c1bc 9728 0cbd def9 26bd b2ac b8bc
000002f0: 78bc 13bd 22a1 bdbc 87fa 1fbc e2ef c23b
00000300: bd09 45bc 2423 693c 263d 90bc 03ea 26bd
00000310: c086 eabc 2245 92bc 29e7 90bc 5292 d2bc
00000320: b5b1 28bd 7a1b b23b dcb9 12bd ccff e23c
00000330: 4e5e f23c 6653 053d 56d5 f3bc 35a5 04bb
00000340: 5371 e8bc 2cc4 62bc 1622 80ba 6d0b 8d3b
00000350: 3494 54b8 538d bc3b f20c ff3c 8650 d3bc
00000360: f7cf a5bc 3aab 80bb 5d1b cbbc ca3a 32bd
00000370: 8451 c7ba 4bf4 03ba e639 09bd 89a9 a53c
00000380: e480 61bc 8ab3 15bd 3333 f8bc ff75 0cbc
00000390: 1a25 d8bc c9a9 9e3c a070 de3b 0443 513b
000003a0: d5da 44bc ea30 2ebc bf92 bc3c 0ccc a13c
000003b0: 5562 2bbd de17 94bc 5c87 13bc 70a0 cfbc
000003c0: 41c3 7cbb 3037 29bc 5209 0ebc 9db1 cc3c
000003d0: 19ad 613c 33b3 32bb 92c2 c8bb 95b1 d5bc
000003e0: 7dda 19bd 3962 3ebd 6a27 913c c699 9f3b
000003f0: e5e6 fe3b 1047 1dbc d492 b1bc 4fc4 b8bc
-0.040483233 -0.0019041515 -0.036064833 -0.008922396 -0.0054257098 -0.003549094 -0.007582893 -0.024725094
-0.033784233 0.0009881094 -0.040942762 6.81014e-05 -0.032458637 0.029957063 0.018954352 -0.04628764
-0.03830261 -0.015348462 -0.044150475 -0.043823536 -0.034961592 -0.017834673 -0.013384997 0.0082600415
0.0023392302 -0.013289564 0.0055955527 0.01533817 -0.03886187 0.00935856 -0.00054310786 -0.009035534
-0.028879644 -0.015085137 -0.0173379 -0.034178402 0.02808318 0.015990125 0.009983884 0.01800869
0.0004791498 0.0025782415 0.023282042 0.013715974 0.010679935 -0.011437781 0.007480877 0.02073045
0.0076111266 0.026496742 0.012397759 0.032175943 0.015267529 -0.020253647 0.020000955 0.011451294
-0.04347493 -0.019117821 0.009578535 0.026505174 -0.010011681 -0.010453541 -0.018722977 -0.020925367
-0.017259771 -0.0012924531 -0.031022247 -0.029835112 -0.01857029 -0.033889882 0.0029281727 -0.014376495
-0.013443464 -0.011220863 -0.030222012 -0.01197339 0.0056232763 0.031472933 -0.009639399 0.0005929369
-4.1881427e-05 -0.033490967 -0.008919331 0.013893617 -0.015944008 -0.004658195 -0.025444916 0.020958308
0.00062685285 0.012806987 -0.026187602 -0.013447767 0.013448607 0.004551412 -0.034118935 0.02256018
0.0017095037 0.030067777 -0.01805995 -0.00079758523 -0.017295653 0.027349005 0.01756968 -0.014239006
-0.031021586 0.03107497 0.0135276 0.031167304 -0.011086692 0.01541701 -0.006363672 0.028265214
-0.02357058 0.02053384 0.028828807 0.004066245 -0.006844796 -0.030288957 0.0006904267 0.028446581
-0.02661564 0.022719188 0.030362213 -0.033948306 -0.0035609703 -0.018932326 0.006383602 0.023124104
-0.010809637 0.026964372 0.03341762 -0.025725178 -0.017117666 0.017884372 -0.03238918 -0.03937014
-0.032188654 -0.0051601618 -0.036170263 -0.018176245 -0.0041511077 0.000828461 0.012555414 -0.00054488034
0.015750222 -0.009123554 0.022908203 0.0014437048 -0.00033650565 0.019916663 -0.011988355 0.014421887
0.005406738 0.029657662 0.0072875298 -0.016112017 -0.039226796 0.012400145 0.025102269 -0.014911897
-0.0074538747 0.0047244593 -0.02200876 -0.028276658 -0.013598483 -0.037994947 -0.0067228503 -0.02927997
-0.013071178 -0.009942134 -0.024939386 -0.03226875 0.026011331 -0.003024526 0.04539389 -0.01755378
0.0029070624 0.01247506 0.0047322116 -0.035662957 0.02239368 0.033684507 0.003780638 -0.015015073
-0.023593284 -0.034218397 -0.040765636 -0.022543285 -0.03606841 -0.023148123 -0.00976432 0.0059490064
-0.012026248 0.01422957 -0.017607283 -0.040750515 -0.028628707 -0.01785523 -0.01768835 -0.025704537
-0.0411851 0.0054354044 -0.03582178 0.027709864 0.029585984 0.032550238 -0.029764812 -0.0020240073
-0.02837435 -0.013840716 -0.0009775783 0.0043043406 -5.0682764e-05 0.005754152 0.031134102 -0.025795233
-0.020240767 -0.003926662 -0.024793321 -0.043513097 -0.0015206789 -0.0005033656 -0.033502482 0.020222442
-0.01376364 -0.036548175 -0.030297851 -0.008573054 -0.026384879 0.01936807 0.0067883283 0.0031930814
-0.012015064 -0.010631779 0.023019193 0.019750617 -0.041841824 -0.018077787 -0.00900444 -0.025345057
-0.0038568529 -0.010328099 -0.008669214 0.024987036 0.01377418 -0.0027267456 -0.00612671 -0.026085654
-0.037561882 -0.04648039 0.01771899 0.004870626 0.0077789896 -0.009599462 -0.021676458 -0.022554545

fc.0.bias f4 [128]
00000000: 7e4a d6bc 9cfd 1d3c 5594 aabc 4e8a 02bd
00000010: 0052 3b3c 980f 1a3c 52f7 71bc 3e09 a7bc
00000020: 2611 cc3c 5b06 03bd f045 d5bc d2dd 60bc
00000030: 6aca a0bc e036 893c 303c 8abb d4a6 353c
00000040: 0ea5 e33c d95a 56bb eda0 1b3b 1a66 b9bc
00000050: 5ad3 0ebd ee15 23bc 3ee4 fb3c fed8 b1bc
00000060: c4f4 05bd 24d1 883c 9cbd 00bd 2080 693b
00000070: 387c 25bc baed 953c 7020 11bd a442 363c
00000080: 7ce7 e4bc cca3 943c e06c db3b 4b37 103d
00000090: 2545 debc 35a2 00bd 8e28 3dbb 5e5b e43c
000000a0: b8d7 143b b84d 38bc 8572 8abc 970a a3bc
000000b0: 0027 6cbb 3b51 073d 580e 15bc 0c51 f9bc
000000c0: cee7 ebbc 24a6 303c e0ed e1bc 9b4e 09bd
000000d0: 00ae b3bc e2cf c53c bfcd 7db9 f012 3a3c
000000e0: b008 9d3b 2d5c a5ba 4066 8c3b 6ca0 443a
000000f0: e834 663c 7ce5 e0bc 98b2 bfbc ad1d 04bd
00000100: 8e0f d13c 4cba d8bc e01c 6a3c 257e ecbc
00000110: 8f0e 993a 172b 8abc c665 b13c 4ec3 e9bc
00000120: 9c4a 773c ee3f bd3c 8b36 0e3d 1f61 04bd
00000130: 3e49 e83c 3c67 3cbc 8467 723c d4fc 463c
00000140: ae71 c8bc 470f bd3a 6cf1 9bbc 62b9 de3c
00000150: 0ab8 6fbc fed6 f93c eecd 7ebc 93ff 52b9
00000160: d33b c9bc c681 04bd 8412 5c3c 20a2 89bc
00000170: 31cc 0a3d c65b f23c b0ed a4bc 80e8 66bc
00000180: d00e a43c 4004 f0bb fca8 0dbd 7c24 8dbc
00000190: ab98 03bd 22dd e93c 9853 0d3b 60c1 b93c
000001a0: 54be 3f3c 86e5 523b 9ef2 b1bc 7e7a 9c3c
000001b0: 5873 0abb 7529 d4bc 0da0 7a3b 5050 c83c
000001c0: 4aef b6bc ae55 843c a699 ed3c d064 d53c
000001d0: 3270 e83c eeb0 c43c 15ce debc 63b1 55bb
000001e0: 1dd0 1537 b7f4 8dbc 2ee3 c83c f87a c3bb
000001f0: 7a0c c2bc 72c9 04bd 4226 453b f313 a3bb
-0.026158568 0.009642985 -0.020822683 -0.03187018 0.011433125 0.009403132 -0.014768438 -0.02039015
0.02491052 -0.031988483 -0.026034325 -0.013724761 -0.019627769 0.0167498 -0.0042186007 0.011087138
0.027788665 -0.0032707958 0.0023747042 -0.022631694 -0.03486953 -0.009953959 0.030748483 -0.021709915
-0.03270413 0.016701289 -0.031430826 0.0035629347 -0.010100417 0.018301833 -0.035431325 0.011124287
-0.027942412 0.01814451 0.0066963285 0.03520898 -0.02713258 -0.031404693 -0.0028863284 0.027875599
0.0022711586 -0.011248998 -0.01690031 -0.01990251 -0.0036033988 0.03303645 -0.009097658 -0.030434154
-0.028797057 0.0107817985 -0.027579248 -0.03352223 -0.021933556 0.024146978 -0.00024204607 0.011357054
0.0047922954 -0.0012615972 0.00428465 0.00075007114 0.0140507 -0.027453177 -0.02340059 -0.032254864
0.025520112 -0.02645602 0.014289111 -0.028868744 0.0011677312 -0.01686625 0.021654975 -0.028535511
0.015093472 0.023101773 0.034719985 -0.032319184 0.028355237 -0.011499222 0.014795188 0.01214524
-0.02446827 0.0014424109 -0.019036017 0.027188007 -0.014631281 0.030498024 -0.015552027 -0.0002012237
-0.02456466 -0.032350324 0.013432149 -0.01680094 0.03388614 0.029584777 -0.02013287 -0.014093518
0.020026594 -0.0073247254 -0.034584984 -0.017229311 -0.032128017 0.028547827 0.0021564718 0.022675216
0.011703093 0.0032180264 -0.021722134 0.019101378 -0.002112588 -0.025898675 0.003824237 0.024452358
-0.022330899 0.016154137 0.02900393 0.026049048 0.028373811 0.024010148 -0.027197877 -0.0032606951
8.929547e-06 -0.017328603 0.02452239 -0.0059655868 -0.02368759 -0.032418676 0.0030082618 -0.0049767434

fc.1.weight f4 [128]
00000000: 12a6 7e3f 645e 7b3f 210c 813f a5c9 753f
00000010: 0fd0 7e3f 89b3 7b3f a820 7d3f 714c 7c3f
00000020: a43a 7e3f 019b 813f bbcd 793f f1b9 7a3f
00000030: fdb4 783f 1b8e 7d3f 56c3 7c3f 6ae6 803f
00000040: dda6 823f a715 7c3f 45e6 7e3f 35b9 793f
00000050: 2e72 7d3f b355 803f a0a1 7f3f bfcc 7c3f
00000060: 61b9 803f 8a19 813f 9109 7e3f ab73 7a3f
00000070: e78c 803f 269d 7c3f d741 7c3f 0403 823f
00000080: 724b 813f 6f28 7c3f 3032 813f ec88 843f
00000090: 01b6 7d3f 3791 7d3f bc1d 7e3f fdb2 7d3f
000000a0: 292d 823f c3f6 813f c22c 823f ce29 7d3f
000000b0: ab50 803f 4d13 823f 4e2c 803f 8867 7e3f
000000c0: fc77 7b3f 1a86 813f 7022 7b3f 3f09 823f
000000d0: a042 863f a3c1 763f d713 823f b9b2 803f
000000e0: a37e 7d3f 55f9 7c3f 68bd 7f3f 0ec7 7b3f
000000f0: 86a7 823f 19dc 7b3f 62ea 7c3f b445 7c3f
00000100: 7819 813f 6641 7a3f 5ac4 7f3f d788 7c3f
00000110: 91ee 7c3f 10ff 7d3f aa61 7a3f e4ce 7b3f
00000120: c18b 813f a3b6 7f3f 5db6 833f e128 7d3f
00000130: 7534 783f 9977 863f 0df5 813f 11b7 803f
00000140: a3b9 793f 5982 813f df63 883f 6938 813f
00000150: 83f1 773f 95c6 7b3f 4cde 7c3f e5a3 843f
00000160: 662b 813f f01d 813f 3b1d 783f fe3c 7d3f
00000170: c179 7e3f cac2 7c3f 2dd8 7a3f e634 7e3f
00000180: f840 803f 9edc 7c3f 7af5 793f f72f 803f
00000190: 209f 823f 9959 823f d3f8 813f aa95 823f
000001a0: 511f 823f 3a3c 803f f513 843f c098 883f
000001b0: 9b3f 803f 1b03 803f 9a1c 803f f439 7b3f
000001c0: 1131 803f b581 823f b800 7f3f 87cb 803f
000001d0: b3f3 863f e646 7e3f 2c1f 7e3f 3067 823f
000001e0: 8b28 863f 9585 7c3f 1bcc 7b3f f2be 823f
000001f0: 7b2b 833f 2bac 7e3f 78ad 7c3f c780 7d3f
0.99472153 0.98190904 1.0081826 0.9601081 0.9953622 0.98320824 0.98877954 0.9855414
0.9930823 1.0125428 0.97579545 0.97939974 0.97151166 0.9904496 0.9873556 1.0070317
1.0207173 0.9847054 0.99570113 0.9754823 0.9900235 1.0026153 0.99855995 0.9874992
1.0056573 1.0085919 0.9923335 0.97832745 1.0043 0.9867729 0.98537964 1.015717
1.0101149 0.98499197 1.0093441 1.0354285 0.9910584 0.99049705 0.9926412 0.9910124
1.0170032 1.0153431 1.0169909 0.98891914 1.0024618 1.016214 1.0013521 0.99376726
0.98229957 1.011905 0.9809942 1.0159072 1.0489082 0.96389216 1.0162305 1.0054542
0.9902136 0.9881795 0.99898386 0.9835061 1.0207374 0.9838272 0.9879514 0.9854386
1.0085897 0.9775604 0.99908984 0.986463 0.98801523 0.9921732 0.97805274 0.98362565
1.0120775 0.99888057 1.0290028 0.988905 0.96955043 1.0505248 1.0152909 1.0055867
0.97548884 1.0117904 1.0655478 1.009534 0.9685289 0.9834989 0.987767 1.0362517
1.0091369 1.0087261 0.969196 0.9892119 0.9940453 0.98734725 0.9798611 0.99299467
1.0019827 0.98774135 0.9764019 1.0014638 1.0204811 1.0183593 1.015406 1.0201924
1.0165807 1.001838 1.031859 1.0671616 1.0019411 1.0000948 1.0008729 0.98135304
1.0014974 1.0195833 0.9961047 1.0062112 1.0543121 0.9932693 0.99266315 1.018774
1.0481123 0.9864133 0.98358315 1.0214522 1.0247644 0.9948146 0.9870219 0.99024624

fc.1.bias f4 [128]
00000000: 306b 58bc f3c3 f3bc 3584 62bc cd8e 1cbd
00000010: 8985 8dbc 17dd 1ebd 123c cfbb 28fa ed3a
00000020: db6e ddbb 596d f0bc 6847 e5bc 47fa 9dbc
00000030: 2c80 c6bc bd51 e9bb 7522 06bd 7362 df3b
00000040: 5f23 8c3c 2fa8 babb d9a7 84bc d267 bdbc
00000050: 2745 2bbc 7dcb 16bc b821 7bbc 18d9 febb
00000060: 5863 90bc 5f47 9e3b a32a de38 b061 c1bc
00000070: d8e9 13bd 70dc 07bb 64ac 28bc dc02 4fbb
00000080: 2802 b5bc b001 fdbc 784f 943a a8ca dfbb
00000090: 5c96 2abc ceac 963a 3f55 2ebc fc11 1cbc
000000a0: 9498 ac39 056a b7bc a19d b7bc 3e8a eabc
000000b0: dbac f9bb 80a6 41bb 9860 b93a 35f6 34bc
000000c0: be93 80bc 4398 13bc b1ee dabc 1503 86bb
000000d0: 4b31 6cbc 0ca4 c6bc ff56 e43b fae8 fd3a
000000e0: bff1 0dbc 91dc 88bc 8598 62bc d078 4cbc
000000f0: 43aa 4c3c 1811 9cbb 5f1d afbc 2edf d3bc
00000100: c65f 5f3b a54e a739 7a49 d2bc 06f6 81bc
00000110: 94e9 88bc fbc3 28bb ec61 b4bc 6101 84bc
00000120: 227e 04b9 cb47 92bb 6f43 d5ba ef9e 4ebc
00000130: 28fc a6bc b1a6 17bc f848 72bc 2ff3 e1bc
00000140: 9d4f 94bc 6fca 493c 3677 fa3c 2b81 a1bc
00000150: a9f5 babc 5a0a e8bc 32dd f3bc b381 263c
00000160: 38f1 10bc d1a3 92bb f581 94bc 0539 95bc
00000170: 8988 84bb fe69 e1bb 51fe 87bc d973 3fbc
00000180: 2347 8fbc 32d5 57ba 8176 54bc e9aa d03a
00000190: 8f55 c63b c92c 7bbc c1be 4abc 83f4 83bc
000001a0: f6b6 bd3b ad3f a2bc 2eed 503b 4c24 49bd
000001b0: 5cb8 21bc 54a4 e83b a506 a03a 8422 c2bc
000001c0: 7282 61bc 407f 9436 64a4 1cbc 7e52 d2bc
000001d0: 18cc 7ebc 837e 95bc 82d6 85bc 7f39 303b
000001e0: 2ad3 0bba 2b72 33bc cc99 ccbc afcf 59bc
000001f0: cecc b9ba 40ad c5b7 ecf7 babb a1b0 d239
-0.013209149 -0.029756522 -0.013825466 -0.038222123 -0.017275589 -0.038785066 -0.0063242996 0.0018156217
-0.0067576 -0.029349016 -0.02798815 -0.01928438 -0.024231039 -0.0071203397 -0.032747705 0.006817156
0.01710671 -0.0056963186 -0.016193317 -0.023120794 -0.010453499 -0.009203789 -0.015327863 -0.0077773444
-0.017625496 0.0048302854 0.000105937266 -0.023606151 -0.036111683 -0.0020730756 -0.010295007 -0.0031587398
-0.022095755 -0.030884594 0.0011315187 -0.0068295784 -0.010411825 0.0011495592 -0.010640441 -0.009525772
0.00032920076 -0.022389421 -0.02241403 -0.028630372 -0.007619483 -0.0029548705 0.0014143167 -0.011045028
-0.015695449 -0.00900847 -0.026725145 -0.004089723 -0.014416049 -0.024248146 0.0069683786 0.0019371801
-0.008663594 -0.016706737 -0.013830309 -0.012479976 0.012491765 -0.00476278 -0.02137631 -0.025863256
0.0034084185 0.00031911317 -0.025669802 -0.015864383 -0.016712941 -0.002575158 -0.022019349 -0.016113939
-0.00012635489 -0.004464125 -0.0016270707 -0.012611135 -0.02038391 -0.009256051 -0.014787905 -0.02758178
-0.018104369 0.01231633 0.030574422 -0.019714912 -0.022822218 -0.028325249 -0.02976856 0.010162759
-0.0088465735 -0.004475095 -0.018128375 -0.018215666 -0.0040445966 -0.0068790903 -0.01660076 -0.011685335
-0.017489975 -0.00082333677 -0.012967707 0.0015920076 0.00605268 -0.015330502 -0.012374581 -0.016107803
0.005789633 -0.019805754 0.0031879651 -0.04910688 -0.009870615 0.0070996676 0.0012209011 -0.023698099
-0.013764011 4.4255576e-06 -0.009560678 -0.025674101 -0.015551589 -0.018248802 -0.016337637 0.002688974
-0.0005333895 -0.010952513 -0.02497568 -0.0132941445 -0.0014175416 -2.3564906e-05 -0.005705824 0.0004018592

fc.1.running_mean f4 [128]
00000000: 0122 a8bf deda f7bf fb21 b2be 58b4 aa3f
00000010: 4586 aebe db92 c03f 54ec b2bf e2d7 b2bf
00000020: 62fb d5bf d8bb 1dbe 018a 00c0 95e4 b4bf
00000030: 5190 8abf fe69 713f 3c98 713f 0ff2 f83e
00000040: 433a 05c0 925a 40bf e39e babf a5e8 d93f
00000050: c8e6 2440 779d 30bf d269 793e 2f94 04bf
00000060: bd6c e8bd 77ce 86bc d1bb 50bf a075 8b3f
00000070: e0b5 44be d21b 2b3f dc6d bcbf e1aa 09be
00000080: 76e4 383e 5c5f 833e 9e17 fcbf 3ca7 fbbd
00000090: c696 a5bf 9960 793f 176f 9fbf 6687 43bf
000000a0: eb79 ebbe d665 06bf 0f15 6cbe 9802 0b3f
000000b0: ff3e 19be 3c38 913f bda5 4cbf 70a9 1cbf
000000c0: 24c5 edbf 3e0c 213e 5976 a53d 73fe 3dbf
000000d0: d097 2a3e fe31 06bf 8576 17bf b031 c939
000000e0: 4a60 853f 71ba e9bf 03e2 97bf 3a06 d63f
000000f0: 3451 513d 1eda 89bf 9870 c8bf 00e0 603f
00000100: 60fe 7d3f 6144 d03f 75b6 833f 3b51 b93f
00000110: 816d a43e 5742 93bf c868 d5bf 057d 52bf
00000120: 31b7 43bf 8c3b 48bf 157f bb3b 632a ac3f
00000130: 6e1f a93f 9c79 8a3d 4610 d03e 5e2f 063f
00000140: 7bb4 efbf 1e52 623e 3b6c 6b3e 9e91 c93d
00000150: e52c 2ebf 35a0 edbf 0d26 2f3c aeac 0fbe
00000160: cacf 893d 41e1 95be 7513 f8bf 6f3d 99bf
00000170: 065f a9bf 8873 febf 5bdb 913f 496c bbbf
00000180: 778f b9bc 2337 e3bf b7ab c6bf 9e3e e13f
00000190: 060f 313f 148a 8fbf b58b bfbe 8dba 00be
000001a0: 6d64 41be d2a7 863e f656 b3bb 43f7 17be
000001b0: 8bec 67bf d302 c9bf 428e 0fbf 4953 8f3f
000001c0: 5579 483e db6c 0a3f 8a19 1cbf 60e6 abbf
000001d0: e321 103d 43ff 2ebf 9f47 fcbe 5a87 733d
000001e0: 3c04 b03d c841 d63f 0fff a93f 0850 c5bf
000001f0: e60c 2bbe c872 8f3f 5fbb a43f c219 3dbf
-1.3135377 -1.9363668 -0.3479155 1.3336287 -0.34086815 1.5044817 -1.3978372 -1.3972132
-1.6717341 -0.15403688 -2.008423 -1.4132258 -1.0825292 0.94302356 0.94372916 0.48622176
-2.081681 -0.751382 -1.4579738 1.7024122 2.5765858 -0.6899027 0.24356773 -0.5178861
-0.11348865 -0.016455872 -0.81536585 1.0895271 -0.19210005 0.66839325 -1.4721026 -0.13444091
0.18055901 0.2565869 -1.9694707 -0.12287757 -1.2936637 0.9741302 -1.2455777 -0.76378477
-0.45991454 -0.5249914 -0.23054908 0.5430083 -0.14965437 1.1345286 -0.79940397 -0.6119604
-1.8575788 0.15727326 0.08079214 -0.74216384 0.16659474 -0.5242003 -0.5916522 0.00038374728
1.042001 -1.8260022 -1.1865848 1.672065 0.051102832 -1.0769689 -1.5659361 0.87841797
0.9921627 1.6270868 1.0290056 1.4477915 0.32114795 -1.150462 -1.6672602 -0.82222015
-0.764514 -0.7821586 0.0057219365 1.3450435 1.3212717 0.067614764 0.40637416 0.52416027
-1.8726953 0.22101638 0.22990505 0.098422274 -0.68037254 -1.8564516 0.010690224 -0.14030716
0.06729086 -0.29273418 -1.9380938 -1.1971873 -1.3232124 -1.9879007 1.1395067 -1.4642421
-0.022651417 -1.7751201 -1.5521153 1.7597234 0.6916355 -1.1214013 -0.37411276 -0.12571163
-0.18885966 0.26299912 -0.005473013 -0.14840417 -0.9059531 -1.5703987 -0.56076443 1.1197292
0.19577534 0.5407235 -0.6097647 -1.342968 0.035188567 -0.6835825 -0.49273393 0.059455253
0.08594558 1.6738825 1.3280963 -1.5415049 -0.16704139 1.1206903 1.2869681 -0.7386743

fc.1.running_var f4 [128]
00000000: 9c91 a53e 28b6 0f3f 2185 033e 3b3c c93e
00000010: f82c fa3d dfa7 da3e 9bbd 883e e62e be3e
00000020: 0120 df3e 8cf7 2a3e 296b 0b3f 4ae5 ad3e
00000030: f9ec 4f3e 3200 433e ac63 653e 911b 0e3e
00000040: 2c39 413f a88e 533e bc2c d83e d33c b33e
00000050: 0297 863f a41f 983d 0f35 d33d a0c5 eb3d
00000060: 7011 323e 4901 063e 81f9 283e d022 423e
00000070: 8c3b 2d3e ee93 243e 810d 013f de72 ae3d
00000080: c1da e03d 4c7f a13d 4043 1f3f c29b 263e
00000090: c1fa be3e 18ff a73e 5166 893e 44d8 4e3e
000000a0: 758e 783e 7842 733e 71b1 8a3e 1450 e03d
000000b0: fdee 093e 7467 b63e 7a31 8d3e 085a 2e3e
000000c0: cba9 0a3f f226 223e 49fb a93d 54d8 3f3e
000000d0: 204c 413e 108b 833e 3f39 153e b226 af3d
000000e0: c89a 7d3e db4d fb3e 89d4 b63e 12bd 013f
000000f0: 2032 253e f582 a83e fcf0 e83e fc22 563e
00000100: 38d6 6f3e 3bc6 e43e 5f60 8a3e bc19 a63e
00000110: e161 223e 8507 d93e 1d43 c03e 6c7c 573e
00000120: d765 4e3e ba3d 0f3e d6ab 773e 2052 ec3e
00000130: 2ae5 c53e 7f87 fd3d f415 1a3e 46cb 413e
00000140: cbbe 323f e1c7 1c3e 2728 713e fb1a 203e
00000150: 10db 623e 2111 223f 15ad ae3d 3e0d 223e
00000160: c3d3 7a3d d369 1f3e d6e1 113f c800 763e
00000170: d63d f23e a676 2b3f 595e 7e3e 2444 c93e
00000180: 3d66 223e 9202 093f 2121 b23e 78dc 063f
00000190: cf95 9f3e 4fe2 aa3e a199 1e3e 161c 413e
000001a0: 1960 f03d 520e 043e c6f7 333e 1544 853e
000001b0: 8c81 953e 4c0a e33e ba0c fe3d 8094 933e
000001c0: 963e ee3d a6d8 ed3d 7c8a 3e3e 4ce8 a23e
000001d0: 77d9 213e cd59 803e dcba 513e fad7 4c3e
000001e0: a514 553e 548d 123f eb29 753e 8fd8 3e3f
000001f0: b8df 2f3e 1785 793e 88d8 ff3e 838c 593e
0.32337654 0.56137323 0.12843753 0.39303765 0.12215608 0.427062 0.26707157 0.37145156
0.43579105 0.16695994 0.5446039 0.33963996 0.20305242 0.19043043 0.22401303 0.13877703
0.7547786 0.20659888 0.4222163 0.35007343 1.0514834 0.0742791 0.103128545 0.11512303
0.17389464 0.13086428 0.16501428 0.18958592 0.16917247 0.16072056 0.5041123 0.08518003
0.10979224 0.07885608 0.6221199 0.16270354 0.37300685 0.3281181 0.26835874 0.20199686
0.24273093 0.23755825 0.27088502 0.10952774 0.13470073 0.35625803 0.2757681 0.17026532
0.54165334 0.15835169 0.08299882 0.18734866 0.18876696 0.25692034 0.14572619 0.085523024
0.24766076 0.49082837 0.35709026 0.50679123 0.16132402 0.32912412 0.45496356 0.20911783
0.23421562 0.44682488 0.2702665 0.3244151 0.1585765 0.4238855 0.37551203 0.21043557
0.20156036 0.1398839 0.24186644 0.46156406 0.386514 0.123793595 0.15047437 0.18925199
0.69822377 0.15310623 0.23550473 0.15635292 0.22153878 0.63307387 0.085291065 0.15825364
0.061237108 0.15567712 0.56985223 0.24023736 0.47312802 0.6697792 0.24840678 0.393098
0.15859313 0.53519547 0.347909 0.5268016 0.31168982 0.33375785 0.15488292 0.1885837
0.11737079 0.12896088 0.17574987 0.26028505 0.292004 0.44343793 0.12404771 0.28824234
0.11633031 0.11613588 0.18607515 0.31817853 0.15805613 0.25068513 0.20481437 0.20004264
0.20808657 0.572469 0.23941772 0.7454919 0.17175186 0.24367176 0.49969888 0.21245007

fc.4.weight f4 [128, 128]
00000000: ddc1 913d 4276 83bd d843 9b3d 4e33 c63d
00000010: 81d2 513c 6a5f a33c b594 06bd d393 123c
00000020: 190e 40bd 2b80 4c3c 4f8c 47bc 5d4d a63d
00000030: 6bce 943c 68f2 ccbd 0b9a e4bb cc4f ac3d
00000040: 00fb d9bc d83e 2e3d 655a 7c3d 71b4 3c3c
00000050: 0c3c adbd 16e4 823d f268 46bc fccf b6bb
00000060: 3790 093a 7e3f cdbd d289 a33c be8b 19bc
00000070: ab60 d93c 9a69 cabd 81f5 293d baa3 163d
00000080: d49c 153c bcb5 39bc 7150 fd3c be4d 553d
00000090: 69a2 af3c 123f 0b3c 4997 29bd fbd7 8b3c
000000a0: 8988 bcbd c13c c4bc 2506 9abd 5071 a4bd
000000b0: ead4 f8bc 05ff 97bd 48c9 d03c 9365 96bd
000000c0: 5aae 84bd 770a ccba 9805 57bb afea 54bb
000000d0: c423 b6bd b8e9 733d 99a6 6abd 7590 7d3d
000000e0: 2af1 93bd d901 1f3d 6614 43bd 8a01 733d
000000f0: 8384 553c ea12 753d f25d 7a3d 4df2 063d
00000100: 0831 bcbd 6cda a5bd 75b0 da3c 0e61 633c
00000110: 6733 88bd c75e 433d a1c2 eabd 54de fc3b
00000120: be20 27bb 4e08 afbd fee1 55bd d71e cdbc
00000130: 46c0 02bd 037d 223d 2c1f 14bd 1fe1 513d
00000140: 6555 303d 545b 69bd 9d1e 46bb ee0e cabb
00000150: 14a0 363d 1e23 50bc fd4e 073d 0e1b 12bc
00000160: 8cf7 403d f626 9c3d 9755 753d 1875 ccbd
00000170: 652b b8bd 8c43 c2bd dbae d23d 1b79 0ebd
00000180: 68e8 0ebd bc52 7d3d d33a fbbc c36d 7f3d
00000190: e590 43bc 956a 783c 9533 11bd 00ee 8b3c
000001a0: 32b5 79bd 3457 4b3d c60f bfb9 b5f3 5abd
000001b0: 0a4b 29bd bff6 9abd 7218 323c 50b2 8e3c
000001c0: 529b 1c3d f888 0c3d 2081 25bb aa74 7f3d
000001d0: 102e 183d 5c3a 6cbd 6520 803b c71e b8bd
000001e0: f27a 083d c18d 463d 9bc2 85bd 7913 52bd
000001f0: e0da a8bd fd30 923d 7db3 babd 14b8 bebd
00000200: c148 a73d bff8 7d3d 40d8 923d 8c39 333b
00000210: 18f6 89bc 8dd0 b1bc 3ae3 353d 007b bcbd
00000220: 1be9 ba3c 2d88 a4bd 6619 b3bb 8177 303c
00000230: 2767 49bd 42cf 19bd 0850 50bd 1f68 283d
00000240: fe82 4d3d 30bc 303d 87bb 4f3d a0b1 94bc
00000250: 0153 343d 567c 003c 9865 ab3d 0dff adbd
00000260: 4873 8f3d b6df 0abd 5a95 ac3b a525 d1bc
00000270: 067f 7c3d 5fe1 3fbd 163a 2b3d e8e6 01bd
00000280: fd25 8d3c cf0d 68bd 2feb 493c 2f05 adbd
00000290: 58db 813c 7f17 42bd 525b 14bd fcfd cebd
000002a0: cacb 4c3d 2712 c63d 7c45 913d 5965 c3bc
000002b0: 8e3c 9a3d f4b1 2bbc 96ae 3abd 3e50 b63c
000002c0: f650 94bc c058 743d d6b6 75bc 078a a4bd
000002d0: d346 193d c266 d6bc d401 fabc cbbd 6cbd
000002e0: 17e4 133d 7c9d a93d 72d8 0dbc 7355 fd3c
000002f0: 5b2c 683d 4b91 883c 0505 553d b095 9e3d
00000300: 5621 59bc cbf4 a93d 2058 633d 29d6 e5bc
00000310: 9506 d53c 6172 a7bd bb34 853d 5249 d3bc
00000320: 85a6 05bc dc3a 65bd 0f05 1bbd 041f 4cbd
00000330: 1b56 9c3d acdf 71bd a150 19bd 9cba 463c
00000340: df29 4abd cad0 cdbc af34 a83d 8dcd 85bc
00000350: 9d78 8fbd 1810 6c3d 9413 67bd eac7 97bb
00000360: 9833 483c f792 1e3d b1fa 453b 5aef 30bd
00000370: 4c47 013d fcd4 76bc 3814 91bd 0fed 9b3d
00000380: 71be 933d 4b5f f23c 7a0f 323c a437 21bd
00000390: e59e dfbc 853e 8ebc 25e6 a2bd 6b69 103d
000003a0: a7af 0a3d 99fa 123d d8ae 7f3c e336 c73d
000003b0: 94ec 17bd c700 22bd 96e6 7cbd ed4f d83c
000003c0: 802a 93bd d579 f0bc 1b11 0a3d 5ce9 6fbc
000003d0: dbf9 443d 37e7 5ebd bd8a 213d af1e 5d3d
000003e0: 2f34 8fbd 01d7 78bd 584e e53b c4d2 2cbc
000003f0: 732a ae3d 10ff 41bd 200a 793b ed86 37bd
0.071170546 -0.0641904 0.075812995 0.09677754 0.012806536 0.019942958 -0.03285666 0.008946377
-0.046888445 0.0124817295 -0.012179448 0.081202246 0.018164834 -0.10007173 -0.006976371 0.084136575
-0.026608944 0.0425404 0.061609644 0.01151763 -0.08458719 0.0639116 -0.012109982 -0.005578993
0.0005247625 -0.10021876 0.019963179 -0.009371696 0.026535353 -0.09883423 0.041493896 0.036777236
0.009131629 -0.011334833 0.030922147 0.052076094 0.021439748 0.008498924 -0.041404042 0.017070761
-0.092057295 -0.023954751 -0.07520703 -0.08029425 -0.030374963 -0.07421688 0.025486603 -0.073435925
-0.064785674 -0.0015567084 -0.003280973 -0.0032488515 -0.088935405 0.059549063 -0.057287786 0.061905343
-0.07223733 0.03882012 -0.047626875 0.05932764 0.013032082 0.05983249 0.06112475 0.03294592
-0.091890395 -0.08098301 0.02669547 0.01387812 -0.06650429 0.04769781 -0.11462904 0.0077169333
-0.0025501694 -0.08546506 -0.052217476 -0.02503912 -0.031921647 0.03967 -0.03616254 0.051240083
0.04305019 -0.056971863 -0.003023065 -0.0061663305 0.044586256 -0.012703685 0.033034313 -0.008917583
0.04711108 0.07624619 0.059896078 -0.09983271 -0.08992652 -0.0948554 0.10287257 -0.034783464
-0.03488961 0.06184648 -0.030667698 0.062360536 -0.011936401 0.01516213 -0.035449583 0.01708126
-0.060963817 0.04964371 -0.0003644211 -0.053455073 -0.04133133 -0.07566594 0.010870086 0.01741901
0.038234062 0.03431031 -0.0025253966 0.06236712 0.037153304 -0.057672843 0.0039101117 -0.08990245
0.033320375 0.04847503 -0.06531259 -0.0512881 -0.08244872 0.0713825 -0.09116266 -0.09312454
0.081681736 0.0620048 0.07170153 0.0027347533 -0.01684098 -0.02170589 0.044406153 -0.09203148
0.022816231 -0.08033786 -0.005465674 0.010770679 -0.04917064 -0.037551172 -0.050857574 0.041114923
0.050173752 0.04314822 0.05071595 -0.018151104 0.04402447 0.007842144 0.08368987 -0.08495913
0.0700441 -0.033904754 0.0052668275 -0.025530646 0.061644576 -0.04684579 0.041803442 -0.03171435
0.017230028 -0.056653794 0.012324139 -0.08448254 0.015851662 -0.04738569 -0.036219902 -0.101070374
0.049999036 0.09671431 0.07093331 -0.023852037 0.07531081 -0.010479439 -0.045576654 0.02225506
-0.018105011 0.05965495 -0.014997205 -0.08034139 0.03742106 -0.026172046 -0.03051845 -0.05779819
0.036106195 0.08281991 -0.008657562 0.030924534 0.056682926 0.016670844 0.05200674 0.077433944
-0.013252577 0.08298644 0.055503964 -0.028056221 0.026004115 -0.08176113 0.06504198 -0.025791798
-0.008157377 -0.055964336 -0.03784662 -0.049834266 0.07633611 -0.0590512 -0.03743041 0.012129452
-0.049356338 -0.025123972 0.082131736 -0.016333366 -0.07005427 0.057632536 -0.056415156 -0.004631986
0.012219332 0.038714375 0.0030209238 -0.043197013 0.031562135 -0.015065428 -0.070839345 0.07613575
0.07214058 0.029586455 0.010867948 -0.039359704 -0.027297447 -0.017363796 -0.07954053 0.035256784
0.03385892 0.03588352 0.015605651 0.09727266 -0.037090853 -0.039551523 -0.06174334 0.0264053
-0.071858406 -0.029354969 0.03370772 -0.01464304 0.048089843 -0.054419722 0.03943895 0.05398434
-0.06992375 -0.06075192 0.0069978647 -0.010548297 0.0850419 -0.047362387 0.003800042 -0.04480641

fc.4.bias f4 [128]
00000000: b0f2 123d 06f0 3d3d 6538 88bd 6a4d 81bd
00000010: 49b0 94bd 1a58 7d3d f648 563d 7d39 41bd
00000020: 9bb1 943d 3e01 5d3d af41 a33d f083 f9bb
00000030: a0be febc 128a 483d cdb2 08bd 2007 923b
00000040: 4075 e03b 99bc 61bd 78d4 04bc 03d5 66bd
00000050: 34ba 89bc 6e4b 54bd a08a babc cb8e 94bd
00000060: f9b8 7bba 742d 93bd d863 29bd d6e6 1abd
00000070: a8f2 4c3c 5404 9dbd 9874 3bbc c809 77bc
00000080: b12d 4bbd 6767 8abd 96bc 173d c6aa 233d
00000090: aa23 dfbc 4c86 b0bd a59f 9c3d 5c61 c33c
000000a0: 2035 943c b75f 02bd 3e55 443d 4323 983d
000000b0: c1ab 45bd 9657 493d d939 84bd ac26 cf3c
000000c0: 7fd6 af3d 5cf4 f63c 8110 333b 3ffc 8b3d
000000d0: 712c 85bd 0a8d 703d 697f acbd 12d5 683d
000000e0: 719a 8f3d 805a f2ba b86d 2dbd f4b2 a3bc
000000f0: d1f3 9ebd 909a c2bb 3787 3bbd 5523 48bd
00000100: 812f 4dbd 6060 c33c 050b 84bd f855 e1bc
00000110: 2827 8cbc 6e51 08bd 54c6 3abd c03d af3b
00000120: dc4f 90bc e3f0 9a3d 3015 3abd ba4b 513d
00000130: 4620 76bd e147 893d 9fa2 9bbd 88b4 18bc
00000140: 8087 df3c 7030 c23b a8c1 dcbc 7075 49bc
00000150: 5f34 a7bd 4293 9ebd 308c 80bb 203d b83c
00000160: 903d e83b d8c2 babc 1784 41bd aa61 673d
00000170: ffcd ad3d 3bdb 973d 1458 05bd d1cd 98bd
00000180: d266 67bd fbc0 9a3d e4e0 14bd be4c 8cbd
00000190: 28b1 4ebc 7437 82bd 6f2a ab3d d0a1 243c
000001a0: a800 06bc 9c3b afbd e09d 1a3b 1850 c0bc
000001b0: 0869 79bc 8b67 9a3d 9931 8f3d 3851 eebc
000001c0: 938a 6bbd 4890 1fbc a0d4 d2bc 0009 cb3a
000001d0: 60b5 07bb 4076 75bd 12a3 25bd afe5 b23d
000001e0: a7e2 acbd a1f4 a03d daf9 113d c854 683c
000001f0: e4ff fb3c 0940 afbd e6bf 6cbd 2861 a2bc
0.035875976 0.046371482 -0.066513814 -0.06313594 -0.07260186 0.0618516 0.052315675 -0.047173966
0.07260438 0.053956263 0.079715125 -0.007614605 -0.031096756 0.0489598 -0.033373643 0.004456416
0.006849915 -0.0551115 -0.008107297 -0.056355488 -0.016812421 -0.051829748 -0.02277118 -0.07253798
-0.0009602453 -0.07186404 -0.041354984 -0.0378178 0.012509026 -0.07666841 -0.011441372 -0.015078016
-0.04960412 -0.06758004 0.037045084 0.039957784 -0.027238686 -0.08619365 0.07647637 0.023850136
0.018091738 -0.031829562 0.047932856 0.07428601 -0.0482595 0.049155794 -0.06456346 0.025286995
0.08585834 0.030145817 0.002732307 0.068352215 -0.06502617 0.058728255 -0.08422739 0.056843825
0.07011879 -0.0018490106 -0.042340964 -0.019982792 -0.07761348 -0.0059388354 -0.045783248 -0.04886182
-0.05009413 0.023849666 -0.06447414 -0.027506813 -0.017108515 -0.033280782 -0.045599297 0.0053479373
-0.017616205 0.07565477 -0.045430362 0.05109761 -0.060089372 0.06703163 -0.07599377 -0.009320386
0.027286291 0.0059261844 -0.026947811 -0.012296066 -0.08164286 -0.07742931 -0.0039229617 0.022490084
0.007087417 -0.022797987 -0.04724511 0.056489624 0.08486556 0.07414862 -0.0325547 -0.07461131
-0.05649454 0.07556339 -0.036347285 -0.06850575 -0.0126154795 -0.06358233 0.08357703 0.010048345
-0.008178867 -0.085562915 0.0023592636 -0.023475692 -0.015222795 0.075392805 0.06991882 -0.029091462
-0.0575052 -0.009738989 -0.025736153 0.0015490353 -0.0020707473 -0.059927225 -0.04043872 0.08735215
-0.08441668 0.07859159 0.035638668 0.01418037 0.030761667 -0.085571356 -0.057800196 -0.019821718

fc.5.weight f4 [128]
00000000: 0771 793f 16a3 7b3f 289b 7a3f b208 7c3f
00000010: 7fef 7a3f 71de 793f 578d 7b3f 9241 7b3f
00000020: 60ad 7b3f 8e8a 783f 4d93 7b3f f406 7a3f
00000030: 64da 7a3f beee 7b3f 9c21 7b3f a3f4 763f
00000040: e48d 7b3f a6d1 793f 415e 7d3f aff2 7a3f
00000050: cb3f 7b3f 21bc 793f 99a6 7a3f 6b98 7b3f
00000060: 3d6e 7b3f ba10 7d3f 829d 7a3f 205c 7b3f
00000070: 7f2c 7b3f 4147 7b3f 534e 7e3f 63a3 793f
00000080: 6d60 7b3f fa19 7a3f a141 7c3f ad0e 7c3f
00000090: 8f47 7b3f 16f2 7a3f 6dc4 7c3f cd10 7c3f
000000a0: e1d1 7a3f 022e 7b3f 54ae 7d3f 74a1 7a3f
000000b0: b658 7c3f 4b31 793f 82c6 7c3f 1ace 783f
000000c0: 551c 7c3f 23c9 793f bbdf 793f 88e3 7c3f
000000d0: 6ccc 7b3f 8bbc 773f d4a1 7b3f efce 7b3f
000000e0: 5286 7c3f dca0 793f 3cd1 793f 6be8 7a3f
000000f0: bdb4 7a3f 83f9 7b3f 37ce 7e3f e9f0 7a3f
00000100: a437 7a3f 61b8 7a3f ccd0 7b3f 1e9a 793f
00000110: f481 793f dcc6 7b3f 996f 7b3f e6cd 7a3f
00000120: 15c7 7c3f bd19 7b3f 0c17 7d3f a1e5 7a3f
00000130: f1ea 7c3f 918a 7a3f 17b8 7b3f e6a2 783f
00000140: f458 793f 23fd 7a3f c3f2 7a3f e8aa 7b3f
00000150: f48b 7a3f 9b1d 7c3f fdeb 793f ee52 7b3f
00000160: 9af5 7c3f 42a1 793f a0b0 7b3f 0fca 7c3f
00000170: 73f6 793f a587 7a3f b2d0 7b3f 7382 7a3f
00000180: b166 783f dfcf 7a3f 8338 7b3f e6ef 7a3f
00000190: 3f34 7c3f d556 7d3f 2ee0 7b3f ae29 7a3f
000001a0: 6e2d 793f 2efe 7a3f b957 793f 4be3 7b3f
000001b0: 64ed 7b3f 4088 7a3f a2c8 793f 0477 7c3f
000001c0: 3338 7c3f 1e15 7c3f 2b9c 7a3f 4a89 7b3f
000001d0: 7c1b 793f 7537 7a3f a7c2 7d3f d814 793f
000001e0: 7427 7b3f 9985 763f 707f 793f c7df 7a3f
000001f0: 30ce 7a3f ef71 7a3f a82a 7b3f 6b50 7b3f
0.9743809 0.98295724 0.97893 0.9845077 0.9802169 0.97605044 0.9826254 0.9814693
0.98311424 0.9708642 0.9827164 0.9766686 0.9798949 0.98411167 0.9809816 0.96467036
0.9826338 0.97585523 0.98971945 0.98026556 0.98144215 0.97552687 0.9791046 0.98279446
0.98215085 0.9885365 0.9789659 0.98187447 0.9811477 0.981556 0.99338263 0.97514933
0.9819401 0.9769589 0.9853764 0.98459893 0.98156065 0.98025644 0.9873722 0.98463136
0.979765 0.9811708 0.9909413 0.9790261 0.9857286 0.9734084 0.987404 0.97189486
0.9848073 0.97572535 0.9760701 0.98784685 0.983588 0.9677207 0.98293805 0.9836263
0.98642457 0.97511077 0.9758489 0.9801089 0.97932035 0.984276 0.9953341 0.9802385
0.9774115 0.9793759 0.98365474 0.9750079 0.9746392 0.9835031 0.9821716 0.97970426
0.98741275 0.9808615 0.9886329 0.98006636 0.9879599 0.97867686 0.98327774 0.97123563
0.97401357 0.98042506 0.98026675 0.9830766 0.978698 0.98482674 0.97625715 0.98173416
0.9881226 0.97511685 0.98316383 0.98745817 0.97641677 0.9786323 0.9836532 0.978553
0.97031695 0.97973436 0.98133105 0.98022306 0.9851722 0.9896062 0.98388946 0.9771985
0.97334945 0.980441 0.9739948 0.98393697 0.98409104 0.9786415 0.97571766 0.98619103
0.98523253 0.9846972 0.97894543 0.9825636 0.9730756 0.9774087 0.9912514 0.9729743
0.98107076 0.96297604 0.9746008 0.9799771 0.9797087 0.978301 0.98111963 0.98169583

fc.5.bias f4 [128]
00000000: 8d88 a9bc b2a9 91bc 1780 afbc d323 83bc
00000010: 5b85 2ebd 4611 90bc 5b99 60bc c610 ecbc
00000020: f1ea b2bc cff5 81bc 2ee4 50bc 1e76 48bb
00000030: f04f 40bc 15af 7fbc 0d45 c8bc e146 4cbc
00000040: b1f6 5eba 4968 cbbc 2793 e6bc 7775 eabc
00000050: 3728 25bc 5443 c4bc aed6 87bc e903 84bc
00000060: 7a57 60bc fd3b fabc aa80 85bc d2fc 04bc
00000070: b1f4 92bc 3e19 85bc 69bf bbbb 88dd b5bc
00000080: 9f9a bcbc 039c 083c 594b 6fbc 6fab 84bc
00000090: 464b 033c a8e3 9dbc 8ac4 3fbc 6ade 9fbc
000000a0: 04ea c0bc a6e9 98bc f28b 72bc 5ecd d7bc
000000b0: d8e3 5cbc 179e b4bc d13d 8ebc b91b 8fbc
000000c0: 6812 b8bb 4c67 bebc 698a 94bc d98e febb
000000d0: 8c54 bbbc 2f39 b5bc c572 7abc 3010 9abc
000000e0: eda3 dabc 40ca 94bc 7ea8 09bd 804f abbc
000000f0: 5268 48bb 06d1 89bc 2e5b 56bc 6064 89bc
00000100: 6187 c3bc d7d7 79bc cbf7 a6bc 9d70 c53a
00000110: e40c b5bc a707 41bc be01 92bc 8f50 95bc
00000120: c0cf f2bb 0425 93bc 0795 b7bb ed23 573b
00000130: 81d0 f1bc cd88 45bc 127e 09bc ca91 dfbc
00000140: 6420 62bc b1f0 7cbc 5d9d 85bc 8397 a2bc
00000150: 7e4a 35bc 10c0 17bc 8aa1 f4bc b5c3 5bbc
00000160: 1e31 d6bc 00be 90bc d350 ffbc 7a9c e5bc
00000170: a9c2 48bc 52d7 d5bc d63a 47bb 4d18 0cbc
00000180: 1984 b6bc 7439 92bc 6d42 cebc 6584 80bc
00000190: 5fe3 c3bc 050d 923a e19a 89bc 8195 4ebd
000001a0: 2b44 10bd 59e7 63bc c282 aabc 11b2 2abc
000001b0: 63b6 bfbc e7b5 5eba 34e7 a6bc be2b 873b
000001c0: 05c9 06bb 2b36 88bc 8d6b 7cbc 3f0b 63bc
000001d0: e214 04bd c480 85bc 299c ffba b2f6 babc
000001e0: 40ca 61bc f9b2 2abd 25fc efbb bae6 d2bc
000001f0: aa42 8abc 8890 72bc 4f03 d6bc c57a 9fbc
-0.020694995 -0.017781112 -0.021423383 -0.016008293 -0.042607646 -0.017586362 -0.013708438 -0.028816592
-0.021840544 -0.015864281 -0.012749715 -0.0030587981 -0.011737809 -0.015605708 -0.024446988 -0.012468071
-0.0008505388 -0.02483 -0.02814634 -0.028620465 -0.010080389 -0.023957886 -0.01658186 -0.016115146
-0.013692731 -0.030546183 -0.016296703 -0.008116918 -0.017938944 -0.016247388 -0.005729605 -0.02220036
-0.023022948 0.008337977 -0.014605367 -0.016195027 0.008013552 -0.019273594 -0.011704573 -0.019515235
-0.023549087 -0.0186661 -0.014803873 -0.026343044 -0.013482057 -0.02204804 -0.01736346 -0.017469274
-0.0056174286 -0.023242615 -0.018132405 -0.0077684936 -0.022867464 -0.022121994 -0.015286152 -0.018806547
-0.026689494 -0.018162847 -0.033607952 -0.020911932 -0.0030579758 -0.016823303 -0.013083262 -0.016771495
-0.023868265 -0.015249214 -0.020381829 0.0015063469 -0.022100873 -0.01178161 -0.017823096 -0.01822689
-0.0074100196 -0.017961986 -0.0056024822 0.003282781 -0.029518368 -0.012056542 -0.008391874 -0.027291197
-0.013801668 -0.015438245 -0.016310388 -0.019847637 -0.011065124 -0.0092621 -0.029862184 -0.013413359
-0.026146468 -0.017668724 -0.03116647 -0.028028715 -0.012253442 -0.02610365 -0.003040006 -0.008550716
-0.022279786 -0.017849661 -0.025178159 -0.01568813 -0.02391213 0.0011142796 -0.016797485 -0.050435547
-0.03522126 -0.013910138 -0.020814303 -0.010418431 -0.023402398 -0.00084957335 -0.020373918 0.0041250875
-0.0020566594 -0.016627392 -0.0154065015 -0.013857662 -0.032246478 -0.016296752 -0.0019501495 -0.022822712
-0.01378113 -0.041674588 -0.007323759 -0.025744785 -0.016877491 -0.014804967 -0.026124625 -0.01946772

fc.5.running_mean f4 [128]
00000000: 0a2d 9fbe d08c fa3d 2e7a 0f3e eff8 25be
00000010: 2d96 8cbe 8f95 cebe 72af 6abe 7c57 8c3d
00000020: 456c d3be 70a0 07be e0ee 8b3d 0444 d03e
00000030: f468 79be e337 a83e 6a0f e33d a53a f3bd
00000040: 4d2c 66bd 3d74 353e c82a a8be 301e 2f3e
00000050: 7700 04be b6ac f1bb e836 963e 07a9 ecbe
00000060: e948 d73e d357 53be 4b0b 083f e7d8 91be
00000070: 46ca 343e 2a96 883d 01fd 3cbf 9b33 dc3e
00000080: 08b2 1cbf 4c26 15bf b420 bdbe 8a19 ae3e
00000090: 2f71 9dbe 83f1 9fbd cece 30bf 87cb ecbe
000000a0: 2291 433d a621 0e3f b0d8 933b e4bd 2d3e
000000b0: ee40 00bf 81ad e63d bb72 c23e 3b80 01bf
000000c0: 0ab8 163e afab 403e 0e46 63be 88c2 37be
000000d0: 1cf4 81be 1416 38bd d24c d3bd eb9d a23e
000000e0: 36d1 f63d a5f9 96be f7d5 30be a4a2 32be
000000f0: 060a 69bf 9585 0ebc 84e2 dabe 6134 83bf
00000100: 5b20 a43d daa9 ec3c 2669 c4be 5638 f4bd
00000110: 5dcf 8dbd 6a4b cf3e d4fa 33be 62f0 0fbf
00000120: 25e1 f0be 8840 d2bd f95c 263e 4383 54bf
00000130: 48e8 5d3e 4f43 6bbe e0de 0f3e dc9e dbbd
00000140: ec61 a13e 0ae4 a63e 010f 18be 30b4 91bd
00000150: f33a 0cbf ceff 913e a00d 60bc 8c19 1abe
00000160: dced 79be d8a2 ecbe 2c18 1c3f cd8f 7fbd
00000170: 86ff 873e 14b4 b33e 9d1f cabd 233f bbbe
00000180: e279 efbe 32a9 5cbd 3b2b 923d 6d8c c4be
00000190: 3e5c 7abe 30f7 9c3e e27f 5f3e 8cff 833e
000001a0: 65ce a53e 261d eb3d e94e 32be f20e 07bf
000001b0: 7242 55bd 523a 113e bbfe 863e 6205 423e
000001c0: 137a af3d 6707 b43e ef6e 083d 9cec 003e
000001d0: fe47 dcbd 4b24 a1be 3b40 09bf e500 a8be
000001e0: 2504 1d3f 2a9a f63e fb27 b4be 6cec 45be
000001f0: ec51 a93a 0b32 adbe 5232 a4bc 8cbf 7dbe
-0.3108905 0.12233889 0.14011452 -0.16208242 -0.27458325 -0.4034848 -0.2291849 0.06852624
-0.4129354 -0.13244796 0.06832671 0.40676892 -0.24356443 0.32855138 0.110869244 -0.1187642
-0.056194592 0.17720123 -0.3284514 0.1710136 -0.12890802 -0.007375325 0.29338765 -0.46222708
0.42047814 -0.20638971 0.5314223 -0.28485796 0.17655286 0.066692665 -0.73823553 0.43008122
-0.61209154 -0.5826156 -0.36939013 0.3400386 -0.30750415 -0.078097366 -0.6906556 -0.4624903
0.04774583 0.55520093 0.004511915 0.16966969 -0.50099075 0.11263562 0.37978157 -0.5058629
0.14718643 0.18815492 -0.22194692 -0.17945302 -0.25381553 -0.04494293 -0.10317387 0.31761107
0.120516226 -0.2948734 -0.17269121 -0.17444855 -0.9103092 -0.008698841 -0.42750943 -1.025036
0.08013984 0.028889585 -0.38361472 -0.11924808 -0.06924317 0.40487224 -0.17576152 -0.5622617
-0.47046772 -0.102662146 0.16246404 -0.8301279 0.2167064 -0.22974895 0.14049864 -0.107236594
0.3152002 0.32595855 -0.14849474 -0.07114446 -0.5477745 0.28515476 -0.013675123 -0.15048808
-0.24407142 -0.4621799 0.60974383 -0.062393 0.26562136 0.35098326 -0.09869311 -0.36571607
-0.46772677 -0.053872295 0.07137152 -0.38388386 -0.2444925 0.3065734 0.21826127 0.25780904
0.3238403 0.11480169 -0.17412914 -0.5275718 -0.05206532 0.14182404 0.2636622 0.18947366
0.08568206 0.35161898 0.03330892 0.1259026 -0.10755919 -0.31473002 -0.5361363 -0.32813182
0.6133445 0.48164493 -0.35186753 -0.19328469 0.0012918091 -0.33827242 -0.020043526 -0.247801

fc.5.running_var f4 [128]
00000000: 7762 8b3e 8518 9e3e 61fc ed3e d98c 473f
00000010: 86d2 173f 3da8 933e 808c f73e e1c2 5b3f
00000020: ff4d 233f 850b d33e 86db 133f 145b 053f
00000030: fbe2 113f 50b0 853e 09ef a03e e988 c33e
00000040: 3e6f 043f 74c8 a73e 0ff9 653f 6b32 f03e
00000050: 2705 fa3e 36db 0f3f 7f43 b33e 73a0 123f
00000060: 7a66 793e a593 203f 3f94 b13e 1c14 253f
00000070: 8268 123f f0cf bc3e 2609 9b3f e607 9e3e
00000080: 3bec 903e c1f5 5b3f b529 2c3f 49e1 ec3e
00000090: 4911 163f 2c6e 003f 0126 533f 3cb5 443f
000000a0: cb2a 1b3f 41a8 f13e 16f8 543f 0f47 353f
000000b0: 3f0f f23e 7278 123f b889 213f 3d4c 1a3f
000000c0: d9c0 ac3e d7ae 9e3e 59a8 053f 0643 f03e
000000d0: 4aa4 c53e eab5 b63e 6ed3 c83e a577 903e
000000e0: 0258 663f ac05 8b3e b91f 213f c2f3 5a3e
000000f0: 60c4 243f 6dda bd3e 27ec 0a3f 7e44 433f
00000100: 4fec c83e 3a25 ad3e cf20 3c3f 13b8 e93e
00000110: bb21 883e e5ff f53e 0d16 cb3e 1ba9 e53e
00000120: 6952 023f 3704 893e 84ba 253f 65bc f23e
00000130: eaa5 563f e834 9f3e 2c30 973e a63c d63e
00000140: 6db2 113f 0c40 393f ffa4 133f 5e9c 993e
00000150: 1549 923e d1b1 a13e de6c e33e f1ca b83e
00000160: dae8 a83e c828 9b3e 4be3 183f cd1b 233f
00000170: 9979 fd3e 8ff9 283f 57d1 173f 168b c73e
00000180: b62f df3e 15b1 4a3f 2a10 b63e c000 e73e
00000190: fc1e 073f 51fa e43e b2ab d63e 7979 4c3f
000001a0: a94c be3e a035 913e a2c7 f13e 4ab1 f23e
000001b0: dd37 fd3e 7d8e 0e3f c935 de3e 349b 353f
000001c0: 61c1 383f 3d1b 0d3f 79ec 843e d45e d33e
000001d0: 334a 023f 785e a43e 44be 803f 8857 f33e
000001e0: 5ed6 883e 691e 893e 32f2 983e 62d5 423f
000001f0: e57d 6b3e c33e e43e 6a95 cc3e 0a8b ef3e
0.2722356 0.30878082 0.46481612 0.7794929 0.5930561 0.28839293 0.4834938 0.85844237
0.6379089 0.41219726 0.5775684 0.520921 0.5698697 0.26111078 0.3143237 0.38190392
0.5173224 0.3277012 0.8983316 0.46913466 0.48832056 0.56193864 0.35012433 0.57276076
0.24355498 0.6272529 0.34683415 0.6448381 0.57190716 0.36877394 1.2112167 0.308654
0.2830523 0.85921866 0.6725114 0.4626563 0.58620125 0.5016811 0.82479864 0.7683904
0.6061217 0.4719868 0.8319105 0.7081155 0.47277257 0.57215035 0.6310077 0.6027258
0.3374088 0.30992767 0.52210003 0.46926135 0.38601905 0.35685664 0.39223808 0.28216282
0.8997804 0.27152765 0.6293903 0.21382049 0.64362144 0.37080708 0.5426659 0.76276386
0.3924279 0.33817464 0.7348756 0.4564825 0.26588234 0.48046795 0.3966526 0.4485558
0.50907 0.26761028 0.64737725 0.4740936 0.83846915 0.31095052 0.2952894 0.41843146
0.5691288 0.7236335 0.5767364 0.3000211 0.28571382 0.31580976 0.44418997 0.36092332
0.32990152 0.3030455 0.5972182 0.63714296 0.49506834 0.66005796 0.593038 0.38973302
0.43591088 0.79176456 0.35559207 0.4511776 0.52781653 0.44722226 0.41927868 0.7987285
0.37167862 0.28361225 0.4722262 0.47400886 0.49456683 0.5568617 0.4340041 0.70939946
0.7217007 0.5511969 0.25961664 0.41283286 0.5089447 0.32103324 1.0058064 0.4752772
0.2672605 0.26781014 0.2987228 0.76106846 0.22997244 0.44579133 0.39957744 0.46785766

fc.8.weight f4 [2, 128]
00000000: bb5e ed3c fdb3 82bd 7c54 30bd 8369 533d
00000010: 395a 33bd 6946 a83d 79a2 4cbd 00c5 b0ba
00000020: d53c 1aba 3fbb 6f3d 02ad 333b 42b9 e7ba
00000030: a33b 99bb c608 4bbd ecc9 88bd dcab 803d
00000040: f9a2 b43d 30fe 96bd 8594 dd3d 0057 c9bd
00000050: 3be3 183d 5781 33bd 1a03 00bd 0b85 423d
00000060: 013a 1c3b ad5c e5bd 1dea 83bc efe5 1dbc
00000070: 184f 72bc b598 c7bc cc6a e23d e697 90bb
00000080: c852 d9bc 6b3f 363d 5722 3f3d 6db8 883d
00000090: ea25 9b3d 9b9f 13bd 0a7e b53d 713c 143d
000000a0: e1a6 9c3c 42e7 413c 8bc8 49bd 208d 1bbd
000000b0: 5fed d83c c8dd 51bd f30e 6abd 0b62 0c3d
000000c0: 9f2f d8bd 7cc1 38bc 12ac 1e3d 9a9e 19bd
000000d0: 6480 cdbd 2ecd 303c 6cf0 9c3d 9f3e 23bc
000000e0: 739e a8bd 1499 15bb 3c2d e8bc a920 c9bc
000000f0: fdbb c93d 8334 be3d 56d7 76bd 3ac1 263d
00000100: 9b32 8cbd ca4e d03c 989d cc3d abc2 e53d
00000110: 885b 713c dc78 113d 568d c4bb f50c 6f3c
00000120: c239 cc3d c179 693c a0b6 89bc 437f 403d
00000130: cc89 b3bd dd91 b73b faf1 b9bd 386d 37bd
00000140: 5b0d e4bd 3cd7 4bbd 2b88 25bc 0d9f 73bd
00000150: 79da 97bb 158a a73d 31cc f1bc 4a10 dc3c
00000160: 52e0 19bd 66ca d83d 6bac bfb9 d827 9cbd
00000170: 20e9 a0bd 9e7c dfbd d634 28bd 23ae 6d3c
00000180: 87cc 3fbc 36b6 b73c b5c3 92bd 3692 643d
00000190: 4593 1fbd 2537 a7bd c468 003d b379 9bbd
000001a0: d62f 0ebd eabd 063d 591d 91bc b197 b43d
000001b0: 09ac 833d 22c6 71bd 52ad bbba 3233 a1bd
000001c0: 058c 06be c3e4 1b3c 7100 79bd 1cf8 fdbd
000001d0: 669b 01bd 061f debc 9ade 023e dd88 10bd
000001e0: 599d 5ebd ac77 bd3b b945 893c 9474 923c
000001f0: 0d02 e43c 8576 693c 35bf d7bd 2205 87bd
00000200: 51ea cfba 4b27 2ebc d980 be3c 4fd8 0c3c
00000210: f667 613d 3f39 60bc 6fe6 acbb 59cd a63c
00000220: 76da 1abd 1b72 373b b135 123d c6de 673b
00000230: 8233 29bd 4b22 f2bd 1267 8bbd 4d36 b4bb
00000240: d585 a4bc 8895 3abd 650d a5bd b29d 98bc
00000250: 5072 94bd badb ad3d 7d09 7e3b db84 643c
00000260: 1e45 a6bc 8305 cb3c 3067 1f3c 8538 913c
00000270: 2062 3b3d 8300 1fbd b932 c3bd e9f1 0f3d
00000280: 5969 5dbc d153 aabd 1aa3 27bc 4107 87bc
00000290: f7c5 a73c d869 25bc 8c2a bfbd facd cebd
000002a0: 082a 88bc 27ab 593d 997c d63d a494 713d
000002b0: 93ad 0ebd 0c58 cbba 3303 b13d 19a7 71bd
000002c0: c861 4abd 1e37 ce3d fb1f 13bd 902d b23d
000002d0: dcdb 11bd a7de b5bc 4702 a1bc 6517 533c
000002e0: d02d 7d3d 9c9b bfb9 8514 0d3d 0af9 15bd
000002f0: 73d1 3bbd f37c d2ba 1999 0c3e 5807 e5bc
00000300: 2e85 44bd 26d4 093d 5028 693a 488e bc3b
00000310: fc5b 443a b74b 6a3d 8c22 503c 7f52 89bd
00000320: 1d44 7dbc 25a6 59bd 328c 0c3e f6df 5ebd
00000330: 8fef 743d 3a15 26bd 02ae d1bc cb65 efbb
00000340: 96c0 11bd 7a91 613d 4fa7 9d3c 9350 173c
00000350: f1eb 1cbd 4ad0 923d 3fd0 9f3d 6438 08bd
00000360: 7fa4 423d 2f53 013d 8931 f93d e0de 8a3c
00000370: b932 46bc 479e a83c 0c28 b33d 1b84 c9bc
00000380: e96a 8fbc d03b 15bd 2053 563c 26fc 123d
00000390: 2f2a e9bc e7f2 283d cb98 a83d 917c 6a3d
000003a0: c572 863c 7d56 bb3d efc6 35bd 416c 1abc
000003b0: f12b bfbc e0b4 8f3d b747 b6ba 33eb 733d
000003c0: f2b8 e9bc 4ea6 a2bd 5ef8 3bbb 9d3d bebc
000003d0: 4fd5 1eba 4251 69bd e4cb 97bd eb4d 18bd
000003e0: 6d3d 59bd ea3b 443a 97a6 84bd 0281 a4bd
000003f0: dafc 6c3d be00 023d 6c29 c7bc c53d 20bc
0.028975835 -0.06381986 -0.04304932 0.051614296 -0.043787215 0.08216555 -0.049959633 -0.0013486445
-0.00058836985 0.05852818 0.0027416353 -0.0017679112 -0.0046762987 -0.049568914 -0.066791385 0.062827796
0.08820147 -0.07372701 0.108193435 -0.09831047 0.03732608 -0.04382452 -0.031252958 0.04749016
0.0023838284 -0.11199317 -0.016102845 -0.00963734 -0.014789365 -0.024364809 0.11055526 -0.004412639
-0.026528731 0.044494074 0.04666361 0.066758014 0.07575591 -0.036040884 0.08861931 0.036190454
0.019122543 0.011834921 -0.04926352 -0.037976384 0.026480375 -0.051236898 -0.057143163 0.03427319
-0.10555958 -0.011276599 0.038738318 -0.03750477 -0.10034254 0.010791106 0.07663044 -0.0099636605
-0.08233347 -0.0022826837 -0.028341882 -0.024551706 0.09850309 0.092873596 -0.060263954 0.04071162
-0.0684559 0.025428195 0.09990996 0.112187706 0.014731295 0.03551565 -0.005998294 0.014590492
0.09971954 0.01425022 -0.016810715 0.046996366 -0.08766517 0.005602105 -0.090793565 -0.044781893
-0.1113536 -0.04976581 -0.010103266 -0.059477855 -0.0046341983 0.08180634 -0.029516311 0.026863236
-0.037567444 0.105854794 -0.0003655882 -0.07624787 -0.07856965 -0.10912441 -0.041066013 0.014506849
-0.011706478 0.022425752 -0.071662344 0.0558035 -0.038958807 -0.08164815 0.031349912 -0.07591572
-0.03471359 0.03289596 -0.01771419 0.08817995 0.064292975 -0.059026845 -0.0014318621 -0.07871093
-0.1313935 0.00951499 -0.060791437 -0.12400839 -0.03164234 -0.027114403 0.12780228 -0.035286773
-0.054349277 0.0057820883 0.01675688 0.017877854 0.02783301 0.014249449 -0.10534517 -0.06592776
-0.0015862678 -0.010629485 0.023254799 0.008596494 0.055030786 -0.0136855235 -0.0052764933 0.02036159
-0.037805997 0.0027991596 0.035695735 0.0035380586 -0.041308887 -0.11822947 -0.068067685 -0.005499637
-0.020083347 -0.04555276 -0.080591954 -0.018629882 -0.07248366 0.08489175 0.003876298 0.013947691
-0.02029663 0.024782902 0.009729192 0.017727146 0.045747876 -0.038818847 -0.09531159 0.035142813
-0.013513886 -0.08316768 -0.010231758 -0.016482951 0.02048014 -0.010096036 -0.09334287 -0.10097881
-0.016621605 0.05314174 0.10472984 0.058979645 -0.034833502 -0.0015513911 0.08643188 -0.058997247
-0.049409658 0.100691065 -0.03591917 0.087000966 -0.035610065 -0.022200895 -0.019654406 0.012883996
0.06181127 -0.00036546297 0.034443397 -0.036614455 -0.045854043 -0.0016058966 0.13730277 -0.027957603
-0.047978573 0.033649586 0.00088942517 0.005754266 0.00074905134 0.057201114 0.012703549 -0.06705188
-0.015458134 -0.053136963 0.13725355 -0.054412805 0.059798773 -0.040547587 -0.025595669 -0.007305836
-0.035584055 0.055070378 0.019244818 0.009235519 -0.03831095 0.07168634 0.07803392 -0.033256903
0.047520157 0.03157347 0.12167651 0.016951978 -0.012097054 0.020583285 0.08747873 -0.024599126
-0.017507033 -0.036433995 0.013081342 0.035885 -0.028462498 0.041247275 0.08232268 0.057247702
0.016412148 0.09147356 -0.04437917 -0.009425224 -0.023336383 0.07016921 -0.0013906871 0.059550475
-0.028530572 -0.07941876 -0.0028681974 -0.023222739 -0.0006059007 -0.05696226 -0.07411936 -0.037183683
-0.053037096 0.00074857345 -0.06477087 -0.08032419 0.057858326 0.03173899 -0.024311744 -0.009780352

fc.8.bias f4 [2]
00000000: 9fab 043e c48e 57bd
0.12956093 -0.052626386
